…
snapshot_prefix: "./models/solver"
solver_mode: GPU
device_id: 0
net: "train48.prototxt"
train_state {
  level: 0
  stage: ""
}
weights: "48net-only-cls.caffemodel"
I0915 18:50:03.179679 23366 solver.cpp:102] Creating training net from net file: train48.prototxt
I0915 18:50:03.180425 23366 net.cpp:53] Initializing net from parameters: 
name: "face_48"
state {
  phase: TRAIN
  level: 0
  stage: ""
}
layer {
  name: "PythonLayer"
  type: "Python"
  top: "data"
  top: "label"
  top: "roi"
  top: "pts"
  python_param {
    module: "pythonLayer"
    layer: "Data_Layer_train"
  }
}
layer {
  name: "conv1"
  type: "Convolution"
  bottom: "data"
  top: "conv1"
  param {
    lr_mult: 1
    decay_mult: 1
  }
  param {
    lr_mult: 2
    decay_mult: 1
  }
  convolution_param {
    num_output: 32
    kernel_size: 3
    weight_filler {
      type: "gaussian"
      std: 0.0001
    }
    bias_filler {
      type: "constant"
    }
  }
}
layer {
  name: "relu1"
  type: "PReLU"
  bottom: "conv1"
  top: "conv1"
}
layer {
  name: "pool1"
  type: "Pooling"
  bottom: "conv1"
  top: "pool1"
  pooling_param {
    pool: MAX
    kernel_size: 3
    stride: 2
  }
}
layer {
  name: "conv2"
  type: "Convolution"
  bottom: "pool1"
  top: "conv2"
  param {
    lr_mult: 1
    decay_mult: 1
  }
  param {
    lr_mult: 2
    decay_mult: 1
  }
  convolution_param {
    num_output: 64
    kernel_size: 3
    weight_filler {
      type: "gaussian"
      std: 0.0001
    }
    bias_filler {
      type: "constant"
    }
  }
}
layer {
  name: "relu2"
  type: "PReLU"
  bottom: "conv2"
  top: "conv2"
}
layer {
  name: "pool2"
  type: "Pooling"
  bottom: "conv2"
  top: "pool2"
  pooling_param {
    pool: MAX
    kernel_size: 3
    stride: 2
  }
}
layer {
  name: "conv3"
  type: "Convolution"
  bottom: "pool2"
  top: "conv3"
  param {
    lr_mult: 1
    decay_mult: 1
  }
  param {
    lr_mult: 2
    decay_mult: 1
  }
  convolution_param {
    num_output: 64
    kernel_size: 3
    stride: 1
    weight_filler {
      type: "xavier"
    }
    bias_filler {
      type: "constant"
      value: 0
    }
  }
}
layer {
  name: "relu3"
  type: "PReLU"
  bottom: "conv3"
  top: "conv3"
}
layer {
  name: "pool3"
  type: "Pooling"
  bottom: "conv3"
  top: "pool3"
  pooling_param {
    pool: MAX
    kernel_size: 2
    stride: 2
  }
}
layer {
  name: "conv4"
  type: "Convolution"
  bottom: "pool3"
  top: "conv4"
  param {
    lr_mult: 1
    decay_mult: 1
  }
  param {
    lr_mult: 2
    decay_mult: 1
  }
  convolution_param {
    num_output: 128
    kernel_size: 2
    stride: 1
    weight_filler {
      type: "xavier"
    }
    bias_filler {
      type: "constant"
      value: 0
    }
  }
}
layer {
  name: "relu4"
  type: "PReLU"
  bottom: "conv4"
  top: "conv4"
}
layer {
  name: "fc5"
  type: "InnerProduct"
  bottom: "conv4"
  top: "fc5"
  param {
    lr_mult: 1
    decay_mult: 1
  }
  param {
    lr_mult: 2
    decay_mult: 1
  }
  inner_product_param {
    num_output: 256
    weight_filler {
      type: "xavier"
    }
    bias_filler {
      type: "constant"
      value: 0
    }
  }
}
layer {
  name: "relu5"
  type: "PReLU"
  bottom: "fc5"
  top: "fc5"
}
layer {
  name: "drop5"
  type: "Dropout"
  bottom: "fc5"
  top: "fc5"
  dropout_param {
    dropout_ratio: 0.5
  }
}
layer {
  name: "fc6-1"
  type: "InnerProduct"
  bottom: "fc5"
  top: "fc6-1"
  param {
    lr_mult: 1
    decay_mult: 1
  }
  param {
    lr_mult: 2
    decay_mult: 1
  }
  inner_product_param {
    num_output: 2
    weight_filler {
      type: "xavier"
    }
    bias_filler {
      type: "constant"
      value: 0
    }
  }
}
layer {
  name: "cls_bridge"
  type: "Python"
  bottom: "fc6-1"
  bottom: "label"
  top: "fc6-1-valid"
  top: "label-valid"
  python_param {
    module: "pythonLayer"
    layer: "cls_Layer"
  }
}
layer {
  name: "ClassifyLoss"
  type: "SoftmaxWithLoss"
  bottom: "fc6-1-valid"
  bottom: "label-valid"
  top: "ClassifyLoss"
  loss_weight: 1
  propagate_down: true
  propagate_down: false
}
layer {
  name: "cls_Acc"
  type: "Accuracy"
  bottom: "fc6-1-valid"
  bottom: "label-valid"
  top: "cls_Acc"
  include {
    phase: TRAIN
  }
}
layer {
  name: "fc6-2"
  type: "InnerProduct"
  bottom: "fc5"
  top: "fc6-2"
  param {
    lr_mult: 1
    decay_mult: 1
  }
  param {
    lr_mult: 2
    decay_mult: 1
  }
  inner_product_param {
    num_output: 4
    weight_filler {
      type: "xavier"
    }
    bias_filler {
      type: "constant"
      value: 0
    }
  }
}
layer {
  name: "RegressionLoss"
  type: "Python"
  bottom: "fc6-2"
  bottom: "roi"
  top: "RegressionLoss"
  loss_weight: 0.5
  python_param {
    module: "pythonLayer"
    layer: "regression_Layer"
  }
}
layer {
  name: "fc6-3"
  type: "InnerProduct"
  bottom: "fc5"
  top: "fc6-3"
  param {
    lr_mult: 1
    decay_mult: 1
  }
  param {
    lr_mult: 2
    decay_mult: 1
  }
  inner_product_param {
    num_output: 10
    weight_filler {
      type: "xavier"
    }
    bias_filler {
      type: "constant"
      value: 0
    }
  }
}
layer {
  name: "LandmarkLoss"
  type: "Python"
  bottom: "fc6-3"
  bottom: "pts"
  top: "LandmarkLoss"
  loss_weight: 1
  python_param {
    module: "pythonLayer"
    layer: "regression_Layer"
  }
}
I0915 18:50:03.180927 23366 layer_factory.hpp:77] Creating layer PythonLayer
I0915 18:50:04.258185 23366 net.cpp:86] Creating Layer PythonLayer
I0915 18:50:04.258227 23366 net.cpp:382] PythonLayer -> data
I0915 18:50:04.258251 23366 net.cpp:382] PythonLayer -> label
I0915 18:50:04.258260 23366 net.cpp:382] PythonLayer -> roi
I0915 18:50:04.258266 23366 net.cpp:382] PythonLayer -> pts
I0915 18:50:18.756186 23366 net.cpp:124] Setting up PythonLayer
I0915 18:50:18.756328 23366 net.cpp:131] Top shape: 64 3 48 48 (442368)
I0915 18:50:18.756340 23366 net.cpp:131] Top shape: 64 1 (64)
I0915 18:50:18.756345 23366 net.cpp:131] Top shape: 64 4 (256)
I0915 18:50:18.756348 23366 net.cpp:131] Top shape: 64 10 (640)
I0915 18:50:18.756351 23366 net.cpp:139] Memory required for data: 1773312
I0915 18:50:18.756366 23366 layer_factory.hpp:77] Creating layer conv1
I0915 18:50:18.756661 23366 net.cpp:86] Creating Layer conv1
I0915 18:50:18.756670 23366 net.cpp:408] conv1 <- data
I0915 18:50:18.756687 23366 net.cpp:382] conv1 -> conv1
I0915 18:50:20.752478 23366 net.cpp:124] Setting up conv1
I0915 18:50:20.752532 23366 net.cpp:131] Top shape: 64 32 46 46 (4333568)
I0915 18:50:20.752552 23366 net.cpp:139] Memory required for data: 19107584
I0915 18:50:20.752596 23366 layer_factory.hpp:77] Creating layer relu1
I0915 18:50:20.752616 23366 net.cpp:86] Creating Layer relu1
I0915 18:50:20.752626 23366 net.cpp:408] relu1 <- conv1
I0915 18:50:20.752637 23366 net.cpp:369] relu1 -> conv1 (in-place)
I0915 18:50:20.752861 23366 net.cpp:124] Setting up relu1
I0915 18:50:20.752872 23366 net.cpp:131] Top shape: 64 32 46 46 (4333568)
I0915 18:50:20.752882 23366 net.cpp:139] Memory required for data: 36441856
I0915 18:50:20.752893 23366 layer_factory.hpp:77] Creating layer pool1
I0915 18:50:20.752907 23366 net.cpp:86] Creating Layer pool1
I0915 18:50:20.752914 23366 net.cpp:408] pool1 <- conv1
I0915 18:50:20.752924 23366 net.cpp:382] pool1 -> pool1
I0915 18:50:20.752988 23366 net.cpp:124] Setting up pool1
I0915 18:50:20.753000 23366 net.cpp:131] Top shape: 64 32 23 23 (1083392)
I0915 18:50:20.753032 23366 net.cpp:139] Memory required for data: 40775424
I0915 18:50:20.753041 23366 layer_factory.hpp:77] Creating layer conv2
I0915 18:50:20.753057 23366 net.cpp:86] Creating Layer conv2
I0915 18:50:20.753067 23366 net.cpp:408] conv2 <- pool1
I0915 18:50:20.753078 23366 net.cpp:382] conv2 -> conv2
I0915 18:50:20.756552 23366 net.cpp:124] Setting up conv2
I0915 18:50:20.756583 23366 net.cpp:131] Top shape: 64 64 21 21 (1806336)
I0915 18:50:20.756595 23366 net.cpp:139] Memory required for data: 48000768
I0915 18:50:20.756623 23366 layer_factory.hpp:77] Creating layer relu2
I0915 18:50:20.756736 23366 net.cpp:86] Creating Layer relu2
I0915 18:50:20.756745 23366 net.cpp:408] relu2 <- conv2
I0915 18:50:20.756757 23366 net.cpp:369] relu2 -> conv2 (in-place)
I0915 18:50:20.756916 23366 net.cpp:124] Setting up relu2
I0915 18:50:20.756927 23366 net.cpp:131] Top shape: 64 64 21 21 (1806336)
I0915 18:50:20.756937 23366 net.cpp:139] Memory required for data: 55226112
I0915 18:50:20.756948 23366 layer_factory.hpp:77] Creating layer pool2
I0915 18:50:20.756958 23366 net.cpp:86] Creating Layer pool2
I0915 18:50:20.756965 23366 net.cpp:408] pool2 <- conv2
I0915 18:50:20.756978 23366 net.cpp:382] pool2 -> pool2
I0915 18:50:20.757043 23366 net.cpp:124] Setting up pool2
I0915 18:50:20.757055 23366 net.cpp:131] Top shape: 64 64 10 10 (409600)
I0915 18:50:20.757064 23366 net.cpp:139] Memory required for data: 56864512
I0915 18:50:20.757071 23366 layer_factory.hpp:77] Creating layer conv3
I0915 18:50:20.757087 23366 net.cpp:86] Creating Layer conv3
I0915 18:50:20.757098 23366 net.cpp:408] conv3 <- pool2
I0915 18:50:20.757110 23366 net.cpp:382] conv3 -> conv3
I0915 18:50:20.760587 23366 net.cpp:124] Setting up conv3
I0915 18:50:20.760617 23366 net.cpp:131] Top shape: 64 64 8 8 (262144)
I0915 18:50:20.760627 23366 net.cpp:139] Memory required for data: 57913088
I0915 18:50:20.760639 23366 layer_factory.hpp:77] Creating layer relu3
I0915 18:50:20.760658 23366 net.cpp:86] Creating Layer relu3
I0915 18:50:20.760666 23366 net.cpp:408] relu3 <- conv3
I0915 18:50:20.760676 23366 net.cpp:369] relu3 -> conv3 (in-place)
I0915 18:50:20.760807 23366 net.cpp:124] Setting up relu3
I0915 18:50:20.760818 23366 net.cpp:131] Top shape: 64 64 8 8 (262144)
I0915 18:50:20.760828 23366 net.cpp:139] Memory required for data: 58961664
I0915 18:50:20.760840 23366 layer_factory.hpp:77] Creating layer pool3
I0915 18:50:20.760855 23366 net.cpp:86] Creating Layer pool3
I0915 18:50:20.760862 23366 net.cpp:408] pool3 <- conv3
I0915 18:50:20.760874 23366 net.cpp:382] pool3 -> pool3
I0915 18:50:20.760918 23366 net.cpp:124] Setting up pool3
I0915 18:50:20.760928 23366 net.cpp:131] Top shape: 64 64 4 4 (65536)
I0915 18:50:20.760939 23366 net.cpp:139] Memory required for data: 59223808
I0915 18:50:20.760946 23366 layer_factory.hpp:77] Creating layer conv4
I0915 18:50:20.760960 23366 net.cpp:86] Creating Layer conv4
I0915 18:50:20.760984 23366 net.cpp:408] conv4 <- pool3
I0915 18:50:20.760990 23366 net.cpp:382] conv4 -> conv4
I0915 18:50:20.764797 23366 net.cpp:124] Setting up conv4
I0915 18:50:20.764823 23366 net.cpp:131] Top shape: 64 128 3 3 (73728)
I0915 18:50:20.764832 23366 net.cpp:139] Memory required for data: 59518720
I0915 18:50:20.764840 23366 layer_factory.hpp:77] Creating layer relu4
I0915 18:50:20.764848 23366 net.cpp:86] Creating Layer relu4
I0915 18:50:20.764854 23366 net.cpp:408] relu4 <- conv4
I0915 18:50:20.764865 23366 net.cpp:369] relu4 -> conv4 (in-place)
I0915 18:50:20.764942 23366 net.cpp:124] Setting up relu4
I0915 18:50:20.764950 23366 net.cpp:131] Top shape: 64 128 3 3 (73728)
I0915 18:50:20.764956 23366 net.cpp:139] Memory required for data: 59813632
I0915 18:50:20.764961 23366 layer_factory.hpp:77] Creating layer fc5
I0915 18:50:20.764974 23366 net.cpp:86] Creating Layer fc5
I0915 18:50:20.764979 23366 net.cpp:408] fc5 <- conv4
I0915 18:50:20.764986 23366 net.cpp:382] fc5 -> fc5
I0915 18:50:20.766837 23366 net.cpp:124] Setting up fc5
I0915 18:50:20.766852 23366 net.cpp:131] Top shape: 64 256 (16384)
I0915 18:50:20.766858 23366 net.cpp:139] Memory required for data: 59879168
I0915 18:50:20.766867 23366 layer_factory.hpp:77] Creating layer relu5
I0915 18:50:20.766875 23366 net.cpp:86] Creating Layer relu5
I0915 18:50:20.766881 23366 net.cpp:408] relu5 <- fc5
I0915 18:50:20.766886 23366 net.cpp:369] relu5 -> fc5 (in-place)
I0915 18:50:20.766950 23366 net.cpp:124] Setting up relu5
I0915 18:50:20.766958 23366 net.cpp:131] Top shape: 64 256 (16384)
I0915 18:50:20.766963 23366 net.cpp:139] Memory required for data: 59944704
I0915 18:50:20.766978 23366 layer_factory.hpp:77] Creating layer drop5
I0915 18:50:20.766993 23366 net.cpp:86] Creating Layer drop5
I0915 18:50:20.767010 23366 net.cpp:408] drop5 <- fc5
I0915 18:50:20.767019 23366 net.cpp:369] drop5 -> fc5 (in-place)
I0915 18:50:20.767045 23366 net.cpp:124] Setting up drop5
I0915 18:50:20.767052 23366 net.cpp:131] Top shape: 64 256 (16384)
I0915 18:50:20.767058 23366 net.cpp:139] Memory required for data: 60010240
I0915 18:50:20.767062 23366 layer_factory.hpp:77] Creating layer fc5_drop5_0_split
I0915 18:50:20.767073 23366 net.cpp:86] Creating Layer fc5_drop5_0_split
I0915 18:50:20.767077 23366 net.cpp:408] fc5_drop5_0_split <- fc5
I0915 18:50:20.767083 23366 net.cpp:382] fc5_drop5_0_split -> fc5_drop5_0_split_0
I0915 18:50:20.767093 23366 net.cpp:382] fc5_drop5_0_split -> fc5_drop5_0_split_1
I0915 18:50:20.767100 23366 net.cpp:382] fc5_drop5_0_split -> fc5_drop5_0_split_2
I0915 18:50:20.767141 23366 net.cpp:124] Setting up fc5_drop5_0_split
I0915 18:50:20.767148 23366 net.cpp:131] Top shape: 64 256 (16384)
I0915 18:50:20.767153 23366 net.cpp:131] Top shape: 64 256 (16384)
I0915 18:50:20.767159 23366 net.cpp:131] Top shape: 64 256 (16384)
I0915 18:50:20.767164 23366 net.cpp:139] Memory required for data: 60206848
I0915 18:50:20.767169 23366 layer_factory.hpp:77] Creating layer fc6-1
I0915 18:50:20.767179 23366 net.cpp:86] Creating Layer fc6-1
I0915 18:50:20.767184 23366 net.cpp:408] fc6-1 <- fc5_drop5_0_split_0
I0915 18:50:20.767190 23366 net.cpp:382] fc6-1 -> fc6-1
I0915 18:50:20.767275 23366 net.cpp:124] Setting up fc6-1
I0915 18:50:20.767282 23366 net.cpp:131] Top shape: 64 2 (128)
I0915 18:50:20.767287 23366 net.cpp:139] Memory required for data: 60207360
I0915 18:50:20.767297 23366 layer_factory.hpp:77] Creating layer cls_bridge
I0915 18:50:20.767369 23366 net.cpp:86] Creating Layer cls_bridge
I0915 18:50:20.767376 23366 net.cpp:408] cls_bridge <- fc6-1
I0915 18:50:20.767382 23366 net.cpp:408] cls_bridge <- label
I0915 18:50:20.767390 23366 net.cpp:382] cls_bridge -> fc6-1-valid
I0915 18:50:20.767397 23366 net.cpp:382] cls_bridge -> label-valid
I0915 18:50:20.767532 23366 net.cpp:124] Setting up cls_bridge
I0915 18:50:20.767542 23366 net.cpp:131] Top shape: 64 2 (128)
I0915 18:50:20.767549 23366 net.cpp:131] Top shape: 64 1 (64)
I0915 18:50:20.767554 23366 net.cpp:139] Memory required for data: 60208128
I0915 18:50:20.767558 23366 layer_factory.hpp:77] Creating layer fc6-1-valid_cls_bridge_0_split
I0915 18:50:20.767565 23366 net.cpp:86] Creating Layer fc6-1-valid_cls_bridge_0_split
I0915 18:50:20.767570 23366 net.cpp:408] fc6-1-valid_cls_bridge_0_split <- fc6-1-valid
I0915 18:50:20.767576 23366 net.cpp:382] fc6-1-valid_cls_bridge_0_split -> fc6-1-valid_cls_bridge_0_split_0
I0915 18:50:20.767587 23366 net.cpp:382] fc6-1-valid_cls_bridge_0_split -> fc6-1-valid_cls_bridge_0_split_1
I0915 18:50:20.767614 23366 net.cpp:124] Setting up fc6-1-valid_cls_bridge_0_split
I0915 18:50:20.767621 23366 net.cpp:131] Top shape: 64 2 (128)
I0915 18:50:20.767627 23366 net.cpp:131] Top shape: 64 2 (128)
I0915 18:50:20.767632 23366 net.cpp:139] Memory required for data: 60209152
I0915 18:50:20.767637 23366 layer_factory.hpp:77] Creating layer label-valid_cls_bridge_1_split
I0915 18:50:20.767643 23366 net.cpp:86] Creating Layer label-valid_cls_bridge_1_split
I0915 18:50:20.767648 23366 net.cpp:408] label-valid_cls_bridge_1_split <- label-valid
I0915 18:50:20.767654 23366 net.cpp:382] label-valid_cls_bridge_1_split -> label-valid_cls_bridge_1_split_0
I0915 18:50:20.767660 23366 net.cpp:382] label-valid_cls_bridge_1_split -> label-valid_cls_bridge_1_split_1
I0915 18:50:20.767688 23366 net.cpp:124] Setting up label-valid_cls_bridge_1_split
I0915 18:50:20.767696 23366 net.cpp:131] Top shape: 64 1 (64)
I0915 18:50:20.767702 23366 net.cpp:131] Top shape: 64 1 (64)
I0915 18:50:20.767707 23366 net.cpp:139] Memory required for data: 60209664
I0915 18:50:20.767712 23366 layer_factory.hpp:77] Creating layer ClassifyLoss
I0915 18:50:20.767722 23366 net.cpp:86] Creating Layer ClassifyLoss
I0915 18:50:20.767738 23366 net.cpp:408] ClassifyLoss <- fc6-1-valid_cls_bridge_0_split_0
I0915 18:50:20.767743 23366 net.cpp:408] ClassifyLoss <- label-valid_cls_bridge_1_split_0
…
