…
snapshot_prefix: "./models/solver"
solver_mode: GPU
device_id: 0
net: "train48.prototxt"
train_state {
  level: 0
  stage: ""
}
weights: "48net-only-cls.caffemodel"
I0915 23:04:49.675396 15477 solver.cpp:102] Creating training net from net file: train48.prototxt
I0915 23:04:49.675618 15477 net.cpp:53] Initializing net from parameters: 
name: "face_48"
state {
  phase: TRAIN
  level: 0
  stage: ""
}
layer {
  name: "PythonLayer"
  type: "Python"
  top: "data"
  top: "label"
  top: "roi"
  top: "pts"
  python_param {
    module: "pythonLayer"
    layer: "Data_Layer_train"
  }
}
layer {
  name: "conv1"
  type: "Convolution"
  bottom: "data"
  top: "conv1"
  param {
    lr_mult: 1
    decay_mult: 1
  }
  param {
    lr_mult: 2
    decay_mult: 1
  }
  convolution_param {
    num_output: 32
    kernel_size: 3
    weight_filler {
      type: "gaussian"
      std: 0.0001
    }
    bias_filler {
      type: "constant"
    }
  }
}
layer {
  name: "relu1"
  type: "PReLU"
  bottom: "conv1"
  top: "conv1"
}
layer {
  name: "pool1"
  type: "Pooling"
  bottom: "conv1"
  top: "pool1"
  pooling_param {
    pool: MAX
    kernel_size: 3
    stride: 2
  }
}
layer {
  name: "conv2"
  type: "Convolution"
  bottom: "pool1"
  top: "conv2"
  param {
    lr_mult: 1
    decay_mult: 1
  }
  param {
    lr_mult: 2
    decay_mult: 1
  }
  convolution_param {
    num_output: 64
    kernel_size: 3
    weight_filler {
      type: "gaussian"
      std: 0.0001
    }
    bias_filler {
      type: "constant"
    }
  }
}
layer {
  name: "relu2"
  type: "PReLU"
  bottom: "conv2"
  top: "conv2"
}
layer {
  name: "pool2"
  type: "Pooling"
  bottom: "conv2"
  top: "pool2"
  pooling_param {
    pool: MAX
    kernel_size: 3
    stride: 2
  }
}
layer {
  name: "conv3"
  type: "Convolution"
  bottom: "pool2"
  top: "conv3"
  param {
    lr_mult: 1
    decay_mult: 1
  }
  param {
    lr_mult: 2
    decay_mult: 1
  }
  convolution_param {
    num_output: 64
    kernel_size: 3
    stride: 1
    weight_filler {
      type: "xavier"
    }
    bias_filler {
      type: "constant"
      value: 0
    }
  }
}
layer {
  name: "relu3"
  type: "PReLU"
  bottom: "conv3"
  top: "conv3"
}
layer {
  name: "pool3"
  type: "Pooling"
  bottom: "conv3"
  top: "pool3"
  pooling_param {
    pool: MAX
    kernel_size: 2
    stride: 2
  }
}
layer {
  name: "conv4"
  type: "Convolution"
  bottom: "pool3"
  top: "conv4"
  param {
    lr_mult: 1
    decay_mult: 1
  }
  param {
    lr_mult: 2
    decay_mult: 1
  }
  convolution_param {
    num_output: 128
    kernel_size: 2
    stride: 1
    weight_filler {
      type: "xavier"
    }
    bias_filler {
      type: "constant"
      value: 0
    }
  }
}
layer {
  name: "relu4"
  type: "PReLU"
  bottom: "conv4"
  top: "conv4"
}
layer {
  name: "fc5"
  type: "InnerProduct"
  bottom: "conv4"
  top: "fc5"
  param {
    lr_mult: 1
    decay_mult: 1
  }
  param {
    lr_mult: 2
    decay_mult: 1
  }
  inner_product_param {
    num_output: 256
    weight_filler {
      type: "xavier"
    }
    bias_filler {
      type: "constant"
      value: 0
    }
  }
}
layer {
  name: "relu5"
  type: "PReLU"
  bottom: "fc5"
  top: "fc5"
}
layer {
  name: "drop5"
  type: "Dropout"
  bottom: "fc5"
  top: "fc5"
  dropout_param {
    dropout_ratio: 0.5
  }
}
layer {
  name: "fc6-1"
  type: "InnerProduct"
  bottom: "fc5"
  top: "fc6-1"
  param {
    lr_mult: 1
    decay_mult: 1
  }
  param {
    lr_mult: 2
    decay_mult: 1
  }
  inner_product_param {
    num_output: 2
    weight_filler {
      type: "xavier"
    }
    bias_filler {
      type: "constant"
      value: 0
    }
  }
}
layer {
  name: "cls_bridge"
  type: "Python"
  bottom: "fc6-1"
  bottom: "label"
  top: "fc6-1-valid"
  top: "label-valid"
  python_param {
    module: "pythonLayer"
    layer: "cls_Layer"
  }
}
layer {
  name: "ClassifyLoss"
  type: "SoftmaxWithLoss"
  bottom: "fc6-1-valid"
  bottom: "label-valid"
  top: "ClassifyLoss"
  loss_weight: 1
  propagate_down: true
  propagate_down: false
}
layer {
  name: "cls_Acc"
  type: "Accuracy"
  bottom: "fc6-1-valid"
  bottom: "label-valid"
  top: "cls_Acc"
  include {
    phase: TRAIN
  }
}
layer {
  name: "fc6-2"
  type: "InnerProduct"
  bottom: "fc5"
  top: "fc6-2"
  param {
    lr_mult: 1
    decay_mult: 1
  }
  param {
    lr_mult: 2
    decay_mult: 1
  }
  inner_product_param {
    num_output: 4
    weight_filler {
      type: "xavier"
    }
    bias_filler {
      type: "constant"
      value: 0
    }
  }
}
layer {
  name: "RegressionLoss"
  type: "Python"
  bottom: "fc6-2"
  bottom: "roi"
  top: "RegressionLoss"
  loss_weight: 0.5
  python_param {
    module: "pythonLayer"
    layer: "regression_Layer"
  }
}
layer {
  name: "fc6-3"
  type: "InnerProduct"
  bottom: "fc5"
  top: "fc6-3"
  param {
    lr_mult: 1
    decay_mult: 1
  }
  param {
    lr_mult: 2
    decay_mult: 1
  }
  inner_product_param {
    num_output: 10
    weight_filler {
      type: "xavier"
    }
    bias_filler {
      type: "constant"
      value: 0
    }
  }
}
layer {
  name: "LandmarkLoss"
  type: "Python"
  bottom: "fc6-3"
  bottom: "pts"
  top: "LandmarkLoss"
  loss_weight: 1
  python_param {
    module: "pythonLayer"
    layer: "regression_Layer"
  }
}
I0915 23:04:49.675783 15477 layer_factory.hpp:77] Creating layer PythonLayer
I0915 23:04:50.150357 15477 net.cpp:86] Creating Layer PythonLayer
I0915 23:04:50.150401 15477 net.cpp:382] PythonLayer -> data
I0915 23:04:50.150424 15477 net.cpp:382] PythonLayer -> label
I0915 23:04:50.150432 15477 net.cpp:382] PythonLayer -> roi
I0915 23:04:50.150437 15477 net.cpp:382] PythonLayer -> pts
I0915 23:05:00.509853 15477 net.cpp:124] Setting up PythonLayer
I0915 23:05:00.509896 15477 net.cpp:131] Top shape: 64 3 48 48 (442368)
I0915 23:05:00.509907 15477 net.cpp:131] Top shape: 64 1 (64)
I0915 23:05:00.509909 15477 net.cpp:131] Top shape: 64 4 (256)
I0915 23:05:00.509913 15477 net.cpp:131] Top shape: 64 10 (640)
I0915 23:05:00.509917 15477 net.cpp:139] Memory required for data: 1773312
I0915 23:05:00.509929 15477 layer_factory.hpp:77] Creating layer conv1
I0915 23:05:00.509969 15477 net.cpp:86] Creating Layer conv1
I0915 23:05:00.509977 15477 net.cpp:408] conv1 <- data
I0915 23:05:00.509995 15477 net.cpp:382] conv1 -> conv1
I0915 23:05:01.602135 15477 net.cpp:124] Setting up conv1
I0915 23:05:01.602172 15477 net.cpp:131] Top shape: 64 32 46 46 (4333568)
I0915 23:05:01.602180 15477 net.cpp:139] Memory required for data: 19107584
I0915 23:05:01.602207 15477 layer_factory.hpp:77] Creating layer relu1
I0915 23:05:01.602216 15477 net.cpp:86] Creating Layer relu1
I0915 23:05:01.602221 15477 net.cpp:408] relu1 <- conv1
I0915 23:05:01.602226 15477 net.cpp:369] relu1 -> conv1 (in-place)
I0915 23:05:01.602332 15477 net.cpp:124] Setting up relu1
I0915 23:05:01.602339 15477 net.cpp:131] Top shape: 64 32 46 46 (4333568)
I0915 23:05:01.602344 15477 net.cpp:139] Memory required for data: 36441856
I0915 23:05:01.602349 15477 layer_factory.hpp:77] Creating layer pool1
I0915 23:05:01.602355 15477 net.cpp:86] Creating Layer pool1
I0915 23:05:01.602358 15477 net.cpp:408] pool1 <- conv1
I0915 23:05:01.602362 15477 net.cpp:382] pool1 -> pool1
I0915 23:05:01.602391 15477 net.cpp:124] Setting up pool1
I0915 23:05:01.602396 15477 net.cpp:131] Top shape: 64 32 23 23 (1083392)
I0915 23:05:01.602399 15477 net.cpp:139] Memory required for data: 40775424
I0915 23:05:01.602402 15477 layer_factory.hpp:77] Creating layer conv2
I0915 23:05:01.602411 15477 net.cpp:86] Creating Layer conv2
I0915 23:05:01.602416 15477 net.cpp:408] conv2 <- pool1
I0915 23:05:01.602419 15477 net.cpp:382] conv2 -> conv2
I0915 23:05:01.603919 15477 net.cpp:124] Setting up conv2
I0915 23:05:01.603936 15477 net.cpp:131] Top shape: 64 64 21 21 (1806336)
I0915 23:05:01.603942 15477 net.cpp:139] Memory required for data: 48000768
I0915 23:05:01.603957 15477 layer_factory.hpp:77] Creating layer relu2
I0915 23:05:01.603974 15477 net.cpp:86] Creating Layer relu2
I0915 23:05:01.603978 15477 net.cpp:408] relu2 <- conv2
I0915 23:05:01.603983 15477 net.cpp:369] relu2 -> conv2 (in-place)
I0915 23:05:01.604049 15477 net.cpp:124] Setting up relu2
I0915 23:05:01.604055 15477 net.cpp:131] Top shape: 64 64 21 21 (1806336)
I0915 23:05:01.604059 15477 net.cpp:139] Memory required for data: 55226112
I0915 23:05:01.604063 15477 layer_factory.hpp:77] Creating layer pool2
I0915 23:05:01.604068 15477 net.cpp:86] Creating Layer pool2
I0915 23:05:01.604071 15477 net.cpp:408] pool2 <- conv2
I0915 23:05:01.604075 15477 net.cpp:382] pool2 -> pool2
I0915 23:05:01.604094 15477 net.cpp:124] Setting up pool2
I0915 23:05:01.604099 15477 net.cpp:131] Top shape: 64 64 10 10 (409600)
I0915 23:05:01.604104 15477 net.cpp:139] Memory required for data: 56864512
I0915 23:05:01.604107 15477 layer_factory.hpp:77] Creating layer conv3
I0915 23:05:01.604113 15477 net.cpp:86] Creating Layer conv3
I0915 23:05:01.604116 15477 net.cpp:408] conv3 <- pool2
I0915 23:05:01.604121 15477 net.cpp:382] conv3 -> conv3
I0915 23:05:01.605609 15477 net.cpp:124] Setting up conv3
I0915 23:05:01.605625 15477 net.cpp:131] Top shape: 64 64 8 8 (262144)
I0915 23:05:01.605631 15477 net.cpp:139] Memory required for data: 57913088
I0915 23:05:01.605638 15477 layer_factory.hpp:77] Creating layer relu3
I0915 23:05:01.605643 15477 net.cpp:86] Creating Layer relu3
I0915 23:05:01.605646 15477 net.cpp:408] relu3 <- conv3
I0915 23:05:01.605650 15477 net.cpp:369] relu3 -> conv3 (in-place)
I0915 23:05:01.605700 15477 net.cpp:124] Setting up relu3
I0915 23:05:01.605705 15477 net.cpp:131] Top shape: 64 64 8 8 (262144)
I0915 23:05:01.605710 15477 net.cpp:139] Memory required for data: 58961664
I0915 23:05:01.605715 15477 layer_factory.hpp:77] Creating layer pool3
I0915 23:05:01.605720 15477 net.cpp:86] Creating Layer pool3
I0915 23:05:01.605723 15477 net.cpp:408] pool3 <- conv3
I0915 23:05:01.605727 15477 net.cpp:382] pool3 -> pool3
I0915 23:05:01.605746 15477 net.cpp:124] Setting up pool3
I0915 23:05:01.605752 15477 net.cpp:131] Top shape: 64 64 4 4 (65536)
I0915 23:05:01.605756 15477 net.cpp:139] Memory required for data: 59223808
I0915 23:05:01.605759 15477 layer_factory.hpp:77] Creating layer conv4
I0915 23:05:01.605767 15477 net.cpp:86] Creating Layer conv4
I0915 23:05:01.605769 15477 net.cpp:408] conv4 <- pool3
I0915 23:05:01.605773 15477 net.cpp:382] conv4 -> conv4
I0915 23:05:01.608270 15477 net.cpp:124] Setting up conv4
I0915 23:05:01.608289 15477 net.cpp:131] Top shape: 64 128 3 3 (73728)
I0915 23:05:01.608294 15477 net.cpp:139] Memory required for data: 59518720
I0915 23:05:01.608300 15477 layer_factory.hpp:77] Creating layer relu4
I0915 23:05:01.608305 15477 net.cpp:86] Creating Layer relu4
I0915 23:05:01.608309 15477 net.cpp:408] relu4 <- conv4
I0915 23:05:01.608314 15477 net.cpp:369] relu4 -> conv4 (in-place)
I0915 23:05:01.608361 15477 net.cpp:124] Setting up relu4
I0915 23:05:01.608366 15477 net.cpp:131] Top shape: 64 128 3 3 (73728)
I0915 23:05:01.608369 15477 net.cpp:139] Memory required for data: 59813632
I0915 23:05:01.608373 15477 layer_factory.hpp:77] Creating layer fc5
I0915 23:05:01.608381 15477 net.cpp:86] Creating Layer fc5
I0915 23:05:01.608384 15477 net.cpp:408] fc5 <- conv4
I0915 23:05:01.608389 15477 net.cpp:382] fc5 -> fc5
I0915 23:05:01.609597 15477 net.cpp:124] Setting up fc5
I0915 23:05:01.609607 15477 net.cpp:131] Top shape: 64 256 (16384)
I0915 23:05:01.609611 15477 net.cpp:139] Memory required for data: 59879168
I0915 23:05:01.609618 15477 layer_factory.hpp:77] Creating layer relu5
I0915 23:05:01.609624 15477 net.cpp:86] Creating Layer relu5
I0915 23:05:01.609628 15477 net.cpp:408] relu5 <- fc5
I0915 23:05:01.609632 15477 net.cpp:369] relu5 -> fc5 (in-place)
I0915 23:05:01.609674 15477 net.cpp:124] Setting up relu5
I0915 23:05:01.609679 15477 net.cpp:131] Top shape: 64 256 (16384)
I0915 23:05:01.609683 15477 net.cpp:139] Memory required for data: 59944704
I0915 23:05:01.609694 15477 layer_factory.hpp:77] Creating layer drop5
I0915 23:05:01.609704 15477 net.cpp:86] Creating Layer drop5
I0915 23:05:01.609714 15477 net.cpp:408] drop5 <- fc5
I0915 23:05:01.609719 15477 net.cpp:369] drop5 -> fc5 (in-place)
I0915 23:05:01.609736 15477 net.cpp:124] Setting up drop5
I0915 23:05:01.609740 15477 net.cpp:131] Top shape: 64 256 (16384)
I0915 23:05:01.609743 15477 net.cpp:139] Memory required for data: 60010240
I0915 23:05:01.609746 15477 layer_factory.hpp:77] Creating layer fc5_drop5_0_split
I0915 23:05:01.609753 15477 net.cpp:86] Creating Layer fc5_drop5_0_split
I0915 23:05:01.609757 15477 net.cpp:408] fc5_drop5_0_split <- fc5
I0915 23:05:01.609761 15477 net.cpp:382] fc5_drop5_0_split -> fc5_drop5_0_split_0
I0915 23:05:01.609766 15477 net.cpp:382] fc5_drop5_0_split -> fc5_drop5_0_split_1
I0915 23:05:01.609771 15477 net.cpp:382] fc5_drop5_0_split -> fc5_drop5_0_split_2
I0915 23:05:01.609797 15477 net.cpp:124] Setting up fc5_drop5_0_split
I0915 23:05:01.609802 15477 net.cpp:131] Top shape: 64 256 (16384)
I0915 23:05:01.609807 15477 net.cpp:131] Top shape: 64 256 (16384)
I0915 23:05:01.609809 15477 net.cpp:131] Top shape: 64 256 (16384)
I0915 23:05:01.609812 15477 net.cpp:139] Memory required for data: 60206848
I0915 23:05:01.609817 15477 layer_factory.hpp:77] Creating layer fc6-1
I0915 23:05:01.609822 15477 net.cpp:86] Creating Layer fc6-1
I0915 23:05:01.609827 15477 net.cpp:408] fc6-1 <- fc5_drop5_0_split_0
I0915 23:05:01.609830 15477 net.cpp:382] fc6-1 -> fc6-1
I0915 23:05:01.609882 15477 net.cpp:124] Setting up fc6-1
I0915 23:05:01.609887 15477 net.cpp:131] Top shape: 64 2 (128)
I0915 23:05:01.609890 15477 net.cpp:139] Memory required for data: 60207360
I0915 23:05:01.609897 15477 layer_factory.hpp:77] Creating layer cls_bridge
I0915 23:05:01.609969 15477 net.cpp:86] Creating Layer cls_bridge
I0915 23:05:01.609974 15477 net.cpp:408] cls_bridge <- fc6-1
I0915 23:05:01.609978 15477 net.cpp:408] cls_bridge <- label
I0915 23:05:01.609982 15477 net.cpp:382] cls_bridge -> fc6-1-valid
I0915 23:05:01.609988 15477 net.cpp:382] cls_bridge -> label-valid
I0915 23:05:01.610106 15477 net.cpp:124] Setting up cls_bridge
I0915 23:05:01.610113 15477 net.cpp:131] Top shape: 64 2 (128)
I0915 23:05:01.610117 15477 net.cpp:131] Top shape: 64 1 (64)
I0915 23:05:01.610121 15477 net.cpp:139] Memory required for data: 60208128
I0915 23:05:01.610123 15477 layer_factory.hpp:77] Creating layer fc6-1-valid_cls_bridge_0_split
I0915 23:05:01.610128 15477 net.cpp:86] Creating Layer fc6-1-valid_cls_bridge_0_split
I0915 23:05:01.610131 15477 net.cpp:408] fc6-1-valid_cls_bridge_0_split <- fc6-1-valid
I0915 23:05:01.610136 15477 net.cpp:382] fc6-1-valid_cls_bridge_0_split -> fc6-1-valid_cls_bridge_0_split_0
I0915 23:05:01.610141 15477 net.cpp:382] fc6-1-valid_cls_bridge_0_split -> fc6-1-valid_cls_bridge_0_split_1
I0915 23:05:01.610158 15477 net.cpp:124] Setting up fc6-1-valid_cls_bridge_0_split
I0915 23:05:01.610164 15477 net.cpp:131] Top shape: 64 2 (128)
I0915 23:05:01.610167 15477 net.cpp:131] Top shape: 64 2 (128)
I0915 23:05:01.610170 15477 net.cpp:139] Memory required for data: 60209152
I0915 23:05:01.610173 15477 layer_factory.hpp:77] Creating layer label-valid_cls_bridge_1_split
I0915 23:05:01.610177 15477 net.cpp:86] Creating Layer label-valid_cls_bridge_1_split
I0915 23:05:01.610182 15477 net.cpp:408] label-valid_cls_bridge_1_split <- label-valid
I0915 23:05:01.610184 15477 net.cpp:382] label-valid_cls_bridge_1_split -> label-valid_cls_bridge_1_split_0
I0915 23:05:01.610189 15477 net.cpp:382] label-valid_cls_bridge_1_split -> label-valid_cls_bridge_1_split_1
I0915 23:05:01.610206 15477 net.cpp:124] Setting up label-valid_cls_bridge_1_split
I0915 23:05:01.610213 15477 net.cpp:131] Top shape: 64 1 (64)
I0915 23:05:01.610215 15477 net.cpp:131] Top shape: 64 1 (64)
I0915 23:05:01.610219 15477 net.cpp:139] Memory required for data: 60209664
I0915 23:05:01.610224 15477 layer_factory.hpp:77] Creating layer ClassifyLoss
I0915 23:05:01.610229 15477 net.cpp:86] Creating Layer ClassifyLoss
I0915 23:05:01.610240 15477 net.cpp:408] ClassifyLoss <- fc6-1-valid_cls_bridge_0_split_0
I0915 23:05:01.610244 15477 net.cpp:408] ClassifyLoss <- label-valid_cls_bridge_1_split_0
…
