…
solver_mode: GPU
device_id: 0
net: "train48.prototxt"
train_state {
  level: 0
  stage: ""
}
type: "SGD"
weights: "48net-only-cls.caffemodel"
I0915 23:55:11.724525 15961 solver.cpp:102] Creating training net from net file: train48.prototxt
I0915 23:55:11.725119 15961 net.cpp:53] Initializing net from parameters: 
name: "face_48"
state {
  phase: TRAIN
  level: 0
  stage: ""
}
layer {
  name: "PythonLayer"
  type: "Python"
  top: "data"
  top: "label"
  top: "roi"
  top: "pts"
  python_param {
    module: "pythonLayer"
    layer: "Data_Layer_train"
  }
}
layer {
  name: "conv1"
  type: "Convolution"
  bottom: "data"
  top: "conv1"
  param {
    lr_mult: 1
    decay_mult: 1
  }
  param {
    lr_mult: 2
    decay_mult: 1
  }
  convolution_param {
    num_output: 32
    kernel_size: 3
    weight_filler {
      type: "gaussian"
      std: 0.0001
    }
    bias_filler {
      type: "constant"
    }
  }
}
layer {
  name: "relu1"
  type: "PReLU"
  bottom: "conv1"
  top: "conv1"
}
layer {
  name: "pool1"
  type: "Pooling"
  bottom: "conv1"
  top: "pool1"
  pooling_param {
    pool: MAX
    kernel_size: 3
    stride: 2
  }
}
layer {
  name: "conv2"
  type: "Convolution"
  bottom: "pool1"
  top: "conv2"
  param {
    lr_mult: 1
    decay_mult: 1
  }
  param {
    lr_mult: 2
    decay_mult: 1
  }
  convolution_param {
    num_output: 64
    kernel_size: 3
    weight_filler {
      type: "gaussian"
      std: 0.0001
    }
    bias_filler {
      type: "constant"
    }
  }
}
layer {
  name: "relu2"
  type: "PReLU"
  bottom: "conv2"
  top: "conv2"
}
layer {
  name: "pool2"
  type: "Pooling"
  bottom: "conv2"
  top: "pool2"
  pooling_param {
    pool: MAX
    kernel_size: 3
    stride: 2
  }
}
layer {
  name: "conv3"
  type: "Convolution"
  bottom: "pool2"
  top: "conv3"
  param {
    lr_mult: 1
    decay_mult: 1
  }
  param {
    lr_mult: 2
    decay_mult: 1
  }
  convolution_param {
    num_output: 64
    kernel_size: 3
    stride: 1
    weight_filler {
      type: "xavier"
    }
    bias_filler {
      type: "constant"
      value: 0
    }
  }
}
layer {
  name: "relu3"
  type: "PReLU"
  bottom: "conv3"
  top: "conv3"
}
layer {
  name: "pool3"
  type: "Pooling"
  bottom: "conv3"
  top: "pool3"
  pooling_param {
    pool: MAX
    kernel_size: 2
    stride: 2
  }
}
layer {
  name: "conv4"
  type: "Convolution"
  bottom: "pool3"
  top: "conv4"
  param {
    lr_mult: 1
    decay_mult: 1
  }
  param {
    lr_mult: 2
    decay_mult: 1
  }
  convolution_param {
    num_output: 128
    kernel_size: 2
    stride: 1
    weight_filler {
      type: "xavier"
    }
    bias_filler {
      type: "constant"
      value: 0
    }
  }
}
layer {
  name: "relu4"
  type: "PReLU"
  bottom: "conv4"
  top: "conv4"
}
layer {
  name: "fc5"
  type: "InnerProduct"
  bottom: "conv4"
  top: "fc5"
  param {
    lr_mult: 1
    decay_mult: 1
  }
  param {
    lr_mult: 2
    decay_mult: 1
  }
  inner_product_param {
    num_output: 256
    weight_filler {
      type: "xavier"
    }
    bias_filler {
      type: "constant"
      value: 0
    }
  }
}
layer {
  name: "relu5"
  type: "PReLU"
  bottom: "fc5"
  top: "fc5"
}
layer {
  name: "drop5"
  type: "Dropout"
  bottom: "fc5"
  top: "fc5"
  dropout_param {
    dropout_ratio: 0.5
  }
}
layer {
  name: "fc6-1"
  type: "InnerProduct"
  bottom: "fc5"
  top: "fc6-1"
  param {
    lr_mult: 1
    decay_mult: 1
  }
  param {
    lr_mult: 2
    decay_mult: 1
  }
  inner_product_param {
    num_output: 2
    weight_filler {
      type: "xavier"
    }
    bias_filler {
      type: "constant"
      value: 0
    }
  }
}
layer {
  name: "cls_bridge"
  type: "Python"
  bottom: "fc6-1"
  bottom: "label"
  top: "fc6-1-valid"
  top: "label-valid"
  python_param {
    module: "pythonLayer"
    layer: "cls_Layer"
  }
}
layer {
  name: "ClassifyLoss"
  type: "SoftmaxWithLoss"
  bottom: "fc6-1-valid"
  bottom: "label-valid"
  top: "ClassifyLoss"
  loss_weight: 0
  propagate_down: true
  propagate_down: false
}
layer {
  name: "cls_Acc"
  type: "Accuracy"
  bottom: "fc6-1-valid"
  bottom: "label-valid"
  top: "cls_Acc"
  include {
    phase: TRAIN
  }
}
layer {
  name: "fc6-2"
  type: "InnerProduct"
  bottom: "fc5"
  top: "fc6-2"
  param {
    lr_mult: 1
    decay_mult: 1
  }
  param {
    lr_mult: 2
    decay_mult: 1
  }
  inner_product_param {
    num_output: 4
    weight_filler {
      type: "xavier"
    }
    bias_filler {
      type: "constant"
      value: 0
    }
  }
}
layer {
  name: "RegressionLoss"
  type: "Python"
  bottom: "fc6-2"
  bottom: "roi"
  top: "RegressionLoss"
  loss_weight: 0.5
  python_param {
    module: "pythonLayer"
    layer: "regression_Layer"
  }
}
layer {
  name: "fc6-3"
  type: "InnerProduct"
  bottom: "fc5"
  top: "fc6-3"
  param {
    lr_mult: 1
    decay_mult: 1
  }
  param {
    lr_mult: 2
    decay_mult: 1
  }
  inner_product_param {
    num_output: 10
    weight_filler {
      type: "xavier"
    }
    bias_filler {
      type: "constant"
      value: 0
    }
  }
}
layer {
  name: "LandmarkLoss"
  type: "Python"
  bottom: "fc6-3"
  bottom: "pts"
  top: "LandmarkLoss"
  loss_weight: 1
  python_param {
    module: "pythonLayer"
    layer: "regression_Layer"
  }
}
I0915 23:55:11.725589 15961 layer_factory.hpp:77] Creating layer PythonLayer
I0915 23:55:12.614380 15961 net.cpp:86] Creating Layer PythonLayer
I0915 23:55:12.614423 15961 net.cpp:382] PythonLayer -> data
I0915 23:55:12.614446 15961 net.cpp:382] PythonLayer -> label
I0915 23:55:12.614457 15961 net.cpp:382] PythonLayer -> roi
I0915 23:55:12.614462 15961 net.cpp:382] PythonLayer -> pts
I0915 23:55:27.237429 15961 net.cpp:124] Setting up PythonLayer
I0915 23:55:27.237583 15961 net.cpp:131] Top shape: 64 3 48 48 (442368)
I0915 23:55:27.237596 15961 net.cpp:131] Top shape: 64 1 (64)
I0915 23:55:27.237599 15961 net.cpp:131] Top shape: 64 4 (256)
I0915 23:55:27.237602 15961 net.cpp:131] Top shape: 64 10 (640)
I0915 23:55:27.237607 15961 net.cpp:139] Memory required for data: 1773312
I0915 23:55:27.237617 15961 layer_factory.hpp:77] Creating layer conv1
I0915 23:55:27.237643 15961 net.cpp:86] Creating Layer conv1
I0915 23:55:27.237653 15961 net.cpp:408] conv1 <- data
I0915 23:55:27.237668 15961 net.cpp:382] conv1 -> conv1
I0915 23:55:28.327076 15961 net.cpp:124] Setting up conv1
I0915 23:55:28.327119 15961 net.cpp:131] Top shape: 64 32 46 46 (4333568)
I0915 23:55:28.327127 15961 net.cpp:139] Memory required for data: 19107584
I0915 23:55:28.327152 15961 layer_factory.hpp:77] Creating layer relu1
I0915 23:55:28.327160 15961 net.cpp:86] Creating Layer relu1
I0915 23:55:28.327165 15961 net.cpp:408] relu1 <- conv1
I0915 23:55:28.327170 15961 net.cpp:369] relu1 -> conv1 (in-place)
I0915 23:55:28.327276 15961 net.cpp:124] Setting up relu1
I0915 23:55:28.327283 15961 net.cpp:131] Top shape: 64 32 46 46 (4333568)
I0915 23:55:28.327287 15961 net.cpp:139] Memory required for data: 36441856
I0915 23:55:28.327292 15961 layer_factory.hpp:77] Creating layer pool1
I0915 23:55:28.327298 15961 net.cpp:86] Creating Layer pool1
I0915 23:55:28.327301 15961 net.cpp:408] pool1 <- conv1
I0915 23:55:28.327306 15961 net.cpp:382] pool1 -> pool1
I0915 23:55:28.327334 15961 net.cpp:124] Setting up pool1
I0915 23:55:28.327339 15961 net.cpp:131] Top shape: 64 32 23 23 (1083392)
I0915 23:55:28.327343 15961 net.cpp:139] Memory required for data: 40775424
I0915 23:55:28.327348 15961 layer_factory.hpp:77] Creating layer conv2
I0915 23:55:28.327358 15961 net.cpp:86] Creating Layer conv2
I0915 23:55:28.327361 15961 net.cpp:408] conv2 <- pool1
I0915 23:55:28.327366 15961 net.cpp:382] conv2 -> conv2
I0915 23:55:28.328851 15961 net.cpp:124] Setting up conv2
I0915 23:55:28.328869 15961 net.cpp:131] Top shape: 64 64 21 21 (1806336)
I0915 23:55:28.328874 15961 net.cpp:139] Memory required for data: 48000768
I0915 23:55:28.328891 15961 layer_factory.hpp:77] Creating layer relu2
I0915 23:55:28.330687 15961 net.cpp:86] Creating Layer relu2
I0915 23:55:28.330709 15961 net.cpp:408] relu2 <- conv2
I0915 23:55:28.330724 15961 net.cpp:369] relu2 -> conv2 (in-place)
I0915 23:55:28.330963 15961 net.cpp:124] Setting up relu2
I0915 23:55:28.330991 15961 net.cpp:131] Top shape: 64 64 21 21 (1806336)
I0915 23:55:28.330996 15961 net.cpp:139] Memory required for data: 55226112
I0915 23:55:28.331001 15961 layer_factory.hpp:77] Creating layer pool2
I0915 23:55:28.331007 15961 net.cpp:86] Creating Layer pool2
I0915 23:55:28.331009 15961 net.cpp:408] pool2 <- conv2
I0915 23:55:28.331013 15961 net.cpp:382] pool2 -> pool2
I0915 23:55:28.331035 15961 net.cpp:124] Setting up pool2
I0915 23:55:28.331040 15961 net.cpp:131] Top shape: 64 64 10 10 (409600)
I0915 23:55:28.331044 15961 net.cpp:139] Memory required for data: 56864512
I0915 23:55:28.331048 15961 layer_factory.hpp:77] Creating layer conv3
I0915 23:55:28.331055 15961 net.cpp:86] Creating Layer conv3
I0915 23:55:28.331059 15961 net.cpp:408] conv3 <- pool2
I0915 23:55:28.331063 15961 net.cpp:382] conv3 -> conv3
I0915 23:55:28.332549 15961 net.cpp:124] Setting up conv3
I0915 23:55:28.332564 15961 net.cpp:131] Top shape: 64 64 8 8 (262144)
I0915 23:55:28.332569 15961 net.cpp:139] Memory required for data: 57913088
I0915 23:55:28.332576 15961 layer_factory.hpp:77] Creating layer relu3
I0915 23:55:28.332582 15961 net.cpp:86] Creating Layer relu3
I0915 23:55:28.332587 15961 net.cpp:408] relu3 <- conv3
I0915 23:55:28.332590 15961 net.cpp:369] relu3 -> conv3 (in-place)
I0915 23:55:28.332641 15961 net.cpp:124] Setting up relu3
I0915 23:55:28.332646 15961 net.cpp:131] Top shape: 64 64 8 8 (262144)
I0915 23:55:28.332650 15961 net.cpp:139] Memory required for data: 58961664
I0915 23:55:28.332655 15961 layer_factory.hpp:77] Creating layer pool3
I0915 23:55:28.332660 15961 net.cpp:86] Creating Layer pool3
I0915 23:55:28.332664 15961 net.cpp:408] pool3 <- conv3
I0915 23:55:28.332667 15961 net.cpp:382] pool3 -> pool3
I0915 23:55:28.332686 15961 net.cpp:124] Setting up pool3
I0915 23:55:28.332690 15961 net.cpp:131] Top shape: 64 64 4 4 (65536)
I0915 23:55:28.332695 15961 net.cpp:139] Memory required for data: 59223808
I0915 23:55:28.332697 15961 layer_factory.hpp:77] Creating layer conv4
I0915 23:55:28.332705 15961 net.cpp:86] Creating Layer conv4
I0915 23:55:28.332707 15961 net.cpp:408] conv4 <- pool3
I0915 23:55:28.332711 15961 net.cpp:382] conv4 -> conv4
I0915 23:55:28.335175 15961 net.cpp:124] Setting up conv4
I0915 23:55:28.335191 15961 net.cpp:131] Top shape: 64 128 3 3 (73728)
I0915 23:55:28.335196 15961 net.cpp:139] Memory required for data: 59518720
I0915 23:55:28.335203 15961 layer_factory.hpp:77] Creating layer relu4
I0915 23:55:28.335208 15961 net.cpp:86] Creating Layer relu4
I0915 23:55:28.335212 15961 net.cpp:408] relu4 <- conv4
I0915 23:55:28.335216 15961 net.cpp:369] relu4 -> conv4 (in-place)
I0915 23:55:28.335264 15961 net.cpp:124] Setting up relu4
I0915 23:55:28.335268 15961 net.cpp:131] Top shape: 64 128 3 3 (73728)
I0915 23:55:28.335273 15961 net.cpp:139] Memory required for data: 59813632
I0915 23:55:28.335275 15961 layer_factory.hpp:77] Creating layer fc5
I0915 23:55:28.335286 15961 net.cpp:86] Creating Layer fc5
I0915 23:55:28.335290 15961 net.cpp:408] fc5 <- conv4
I0915 23:55:28.335295 15961 net.cpp:382] fc5 -> fc5
I0915 23:55:28.336488 15961 net.cpp:124] Setting up fc5
I0915 23:55:28.336498 15961 net.cpp:131] Top shape: 64 256 (16384)
I0915 23:55:28.336501 15961 net.cpp:139] Memory required for data: 59879168
I0915 23:55:28.336505 15961 layer_factory.hpp:77] Creating layer relu5
I0915 23:55:28.336509 15961 net.cpp:86] Creating Layer relu5
I0915 23:55:28.336513 15961 net.cpp:408] relu5 <- fc5
I0915 23:55:28.336516 15961 net.cpp:369] relu5 -> fc5 (in-place)
I0915 23:55:28.336556 15961 net.cpp:124] Setting up relu5
I0915 23:55:28.336561 15961 net.cpp:131] Top shape: 64 256 (16384)
I0915 23:55:28.336565 15961 net.cpp:139] Memory required for data: 59944704
I0915 23:55:28.336577 15961 layer_factory.hpp:77] Creating layer drop5
I0915 23:55:28.336586 15961 net.cpp:86] Creating Layer drop5
I0915 23:55:28.336594 15961 net.cpp:408] drop5 <- fc5
I0915 23:55:28.336598 15961 net.cpp:369] drop5 -> fc5 (in-place)
I0915 23:55:28.336617 15961 net.cpp:124] Setting up drop5
I0915 23:55:28.336621 15961 net.cpp:131] Top shape: 64 256 (16384)
I0915 23:55:28.336625 15961 net.cpp:139] Memory required for data: 60010240
I0915 23:55:28.336628 15961 layer_factory.hpp:77] Creating layer fc5_drop5_0_split
I0915 23:55:28.336637 15961 net.cpp:86] Creating Layer fc5_drop5_0_split
I0915 23:55:28.336639 15961 net.cpp:408] fc5_drop5_0_split <- fc5
I0915 23:55:28.336643 15961 net.cpp:382] fc5_drop5_0_split -> fc5_drop5_0_split_0
I0915 23:55:28.336648 15961 net.cpp:382] fc5_drop5_0_split -> fc5_drop5_0_split_1
I0915 23:55:28.336653 15961 net.cpp:382] fc5_drop5_0_split -> fc5_drop5_0_split_2
I0915 23:55:28.336678 15961 net.cpp:124] Setting up fc5_drop5_0_split
I0915 23:55:28.336683 15961 net.cpp:131] Top shape: 64 256 (16384)
I0915 23:55:28.336686 15961 net.cpp:131] Top shape: 64 256 (16384)
I0915 23:55:28.336690 15961 net.cpp:131] Top shape: 64 256 (16384)
I0915 23:55:28.336694 15961 net.cpp:139] Memory required for data: 60206848
I0915 23:55:28.336696 15961 layer_factory.hpp:77] Creating layer fc6-1
I0915 23:55:28.336701 15961 net.cpp:86] Creating Layer fc6-1
I0915 23:55:28.336704 15961 net.cpp:408] fc6-1 <- fc5_drop5_0_split_0
I0915 23:55:28.336709 15961 net.cpp:382] fc6-1 -> fc6-1
I0915 23:55:28.336760 15961 net.cpp:124] Setting up fc6-1
I0915 23:55:28.336766 15961 net.cpp:131] Top shape: 64 2 (128)
I0915 23:55:28.336768 15961 net.cpp:139] Memory required for data: 60207360
I0915 23:55:28.336774 15961 layer_factory.hpp:77] Creating layer cls_bridge
I0915 23:55:28.336828 15961 net.cpp:86] Creating Layer cls_bridge
I0915 23:55:28.336833 15961 net.cpp:408] cls_bridge <- fc6-1
I0915 23:55:28.336838 15961 net.cpp:408] cls_bridge <- label
I0915 23:55:28.336841 15961 net.cpp:382] cls_bridge -> fc6-1-valid
I0915 23:55:28.336848 15961 net.cpp:382] cls_bridge -> label-valid
I0915 23:55:28.336949 15961 net.cpp:124] Setting up cls_bridge
I0915 23:55:28.336956 15961 net.cpp:131] Top shape: 64 2 (128)
I0915 23:55:28.336961 15961 net.cpp:131] Top shape: 64 1 (64)
I0915 23:55:28.336963 15961 net.cpp:139] Memory required for data: 60208128
I0915 23:55:28.336968 15961 layer_factory.hpp:77] Creating layer fc6-1-valid_cls_bridge_0_split
I0915 23:55:28.336972 15961 net.cpp:86] Creating Layer fc6-1-valid_cls_bridge_0_split
I0915 23:55:28.336975 15961 net.cpp:408] fc6-1-valid_cls_bridge_0_split <- fc6-1-valid
I0915 23:55:28.336979 15961 net.cpp:382] fc6-1-valid_cls_bridge_0_split -> fc6-1-valid_cls_bridge_0_split_0
I0915 23:55:28.336985 15961 net.cpp:382] fc6-1-valid_cls_bridge_0_split -> fc6-1-valid_cls_bridge_0_split_1
I0915 23:55:28.337003 15961 net.cpp:124] Setting up fc6-1-valid_cls_bridge_0_split
I0915 23:55:28.337015 15961 net.cpp:131] Top shape: 64 2 (128)
I0915 23:55:28.337018 15961 net.cpp:131] Top shape: 64 2 (128)
I0915 23:55:28.337021 15961 net.cpp:139] Memory required for data: 60209152
I0915 23:55:28.337024 15961 layer_factory.hpp:77] Creating layer label-valid_cls_bridge_1_split
I0915 23:55:28.337028 15961 net.cpp:86] Creating Layer label-valid_cls_bridge_1_split
I0915 23:55:28.337031 15961 net.cpp:408] label-valid_cls_bridge_1_split <- label-valid
I0915 23:55:28.337035 15961 net.cpp:382] label-valid_cls_bridge_1_split -> label-valid_cls_bridge_1_split_0
I0915 23:55:28.337039 15961 net.cpp:382] label-valid_cls_bridge_1_split -> label-valid_cls_bridge_1_split_1
I0915 23:55:28.337057 15961 net.cpp:124] Setting up label-valid_cls_bridge_1_split
I0915 23:55:28.337060 15961 net.cpp:131] Top shape: 64 1 (64)
I0915 23:55:28.337064 15961 net.cpp:131] Top shape: 64 1 (64)
I0915 23:55:28.337067 15961 net.cpp:139] Memory required for data: 60209664
I0915 23:55:28.337070 15961 layer_factory.hpp:77] Creating layer ClassifyLoss
I0915 23:55:28.337080 15961 net.cpp:86] Creating Layer ClassifyLoss
I0915 23:55:28.337085 15961 net.cpp:408] ClassifyLoss <- fc6-1-valid_cls_bridge_0_split_0
I0915 23:55:28.337090 15961 net.cpp:408] ClassifyLoss <- label-valid_cls_bridge_1_split_0
…
