…
solver_mode: GPU
device_id: 0
net: "train48.prototxt"
train_state {
  level: 0
  stage: ""
}
type: "SGD"
weights: "48net-only-cls.caffemodel"
I0916 13:19:26.565547 20275 solver.cpp:102] Creating training net from net file: train48.prototxt
I0916 13:19:26.566072 20275 net.cpp:53] Initializing net from parameters: 
name: "face_48"
state {
  phase: TRAIN
  level: 0
  stage: ""
}
layer {
  name: "PythonLayer"
  type: "Python"
  top: "data"
  top: "label"
  top: "roi"
  top: "pts"
  python_param {
    module: "pythonLayer"
    layer: "Data_Layer_train"
  }
}
layer {
  name: "conv1"
  type: "Convolution"
  bottom: "data"
  top: "conv1"
  param {
    lr_mult: 1
    decay_mult: 1
  }
  param {
    lr_mult: 2
    decay_mult: 1
  }
  convolution_param {
    num_output: 32
    kernel_size: 3
    weight_filler {
      type: "gaussian"
      std: 0.0001
    }
    bias_filler {
      type: "constant"
    }
  }
}
layer {
  name: "relu1"
  type: "PReLU"
  bottom: "conv1"
  top: "conv1"
}
layer {
  name: "pool1"
  type: "Pooling"
  bottom: "conv1"
  top: "pool1"
  pooling_param {
    pool: MAX
    kernel_size: 3
    stride: 2
  }
}
layer {
  name: "conv2"
  type: "Convolution"
  bottom: "pool1"
  top: "conv2"
  param {
    lr_mult: 1
    decay_mult: 1
  }
  param {
    lr_mult: 2
    decay_mult: 1
  }
  convolution_param {
    num_output: 64
    kernel_size: 3
    weight_filler {
      type: "gaussian"
      std: 0.0001
    }
    bias_filler {
      type: "constant"
    }
  }
}
layer {
  name: "relu2"
  type: "PReLU"
  bottom: "conv2"
  top: "conv2"
}
layer {
  name: "pool2"
  type: "Pooling"
  bottom: "conv2"
  top: "pool2"
  pooling_param {
    pool: MAX
    kernel_size: 3
    stride: 2
  }
}
layer {
  name: "conv3"
  type: "Convolution"
  bottom: "pool2"
  top: "conv3"
  param {
    lr_mult: 1
    decay_mult: 1
  }
  param {
    lr_mult: 2
    decay_mult: 1
  }
  convolution_param {
    num_output: 64
    kernel_size: 3
    stride: 1
    weight_filler {
      type: "xavier"
    }
    bias_filler {
      type: "constant"
      value: 0
    }
  }
}
layer {
  name: "relu3"
  type: "PReLU"
  bottom: "conv3"
  top: "conv3"
}
layer {
  name: "pool3"
  type: "Pooling"
  bottom: "conv3"
  top: "pool3"
  pooling_param {
    pool: MAX
    kernel_size: 2
    stride: 2
  }
}
layer {
  name: "conv4"
  type: "Convolution"
  bottom: "pool3"
  top: "conv4"
  param {
    lr_mult: 1
    decay_mult: 1
  }
  param {
    lr_mult: 2
    decay_mult: 1
  }
  convolution_param {
    num_output: 128
    kernel_size: 2
    stride: 1
    weight_filler {
      type: "xavier"
    }
    bias_filler {
      type: "constant"
      value: 0
    }
  }
}
layer {
  name: "relu4"
  type: "PReLU"
  bottom: "conv4"
  top: "conv4"
}
layer {
  name: "fc5"
  type: "InnerProduct"
  bottom: "conv4"
  top: "fc5"
  param {
    lr_mult: 1
    decay_mult: 1
  }
  param {
    lr_mult: 2
    decay_mult: 1
  }
  inner_product_param {
    num_output: 256
    weight_filler {
      type: "xavier"
    }
    bias_filler {
      type: "constant"
      value: 0
    }
  }
}
layer {
  name: "relu5"
  type: "PReLU"
  bottom: "fc5"
  top: "fc5"
}
layer {
  name: "drop5"
  type: "Dropout"
  bottom: "fc5"
  top: "fc5"
  dropout_param {
    dropout_ratio: 0.5
  }
}
layer {
  name: "fc6-1"
  type: "InnerProduct"
  bottom: "fc5"
  top: "fc6-1"
  param {
    lr_mult: 1
    decay_mult: 1
  }
  param {
    lr_mult: 2
    decay_mult: 1
  }
  inner_product_param {
    num_output: 2
    weight_filler {
      type: "xavier"
    }
    bias_filler {
      type: "constant"
      value: 0
    }
  }
}
layer {
  name: "cls_bridge"
  type: "Python"
  bottom: "fc6-1"
  bottom: "label"
  top: "fc6-1-valid"
  top: "label-valid"
  python_param {
    module: "pythonLayer"
    layer: "cls_Layer"
  }
}
layer {
  name: "ClassifyLoss"
  type: "SoftmaxWithLoss"
  bottom: "fc6-1-valid"
  bottom: "label-valid"
  top: "ClassifyLoss"
  loss_weight: 1
  propagate_down: true
  propagate_down: false
}
layer {
  name: "cls_Acc"
  type: "Accuracy"
  bottom: "fc6-1-valid"
  bottom: "label-valid"
  top: "cls_Acc"
  include {
    phase: TRAIN
  }
}
layer {
  name: "fc6-2"
  type: "InnerProduct"
  bottom: "fc5"
  top: "fc6-2"
  param {
    lr_mult: 1
    decay_mult: 1
  }
  param {
    lr_mult: 2
    decay_mult: 1
  }
  inner_product_param {
    num_output: 4
    weight_filler {
      type: "xavier"
    }
    bias_filler {
      type: "constant"
      value: 0
    }
  }
}
layer {
  name: "RegressionLoss"
  type: "Python"
  bottom: "fc6-2"
  bottom: "roi"
  top: "RegressionLoss"
  loss_weight: 0.5
  python_param {
    module: "pythonLayer"
    layer: "regression_Layer"
  }
}
layer {
  name: "fc6-3"
  type: "InnerProduct"
  bottom: "fc5"
  top: "fc6-3"
  param {
    lr_mult: 1
    decay_mult: 1
  }
  param {
    lr_mult: 2
    decay_mult: 1
  }
  inner_product_param {
    num_output: 10
    weight_filler {
      type: "xavier"
    }
    bias_filler {
      type: "constant"
      value: 0
    }
  }
}
layer {
  name: "LandmarkLoss"
  type: "Python"
  bottom: "fc6-3"
  bottom: "pts"
  top: "LandmarkLoss"
  loss_weight: 1
  python_param {
    module: "pythonLayer"
    layer: "regression_Layer"
  }
}
I0916 13:19:26.566503 20275 layer_factory.hpp:77] Creating layer PythonLayer
I0916 13:19:27.541962 20275 net.cpp:86] Creating Layer PythonLayer
I0916 13:19:27.542002 20275 net.cpp:382] PythonLayer -> data
I0916 13:19:27.542026 20275 net.cpp:382] PythonLayer -> label
I0916 13:19:27.542037 20275 net.cpp:382] PythonLayer -> roi
I0916 13:19:27.542042 20275 net.cpp:382] PythonLayer -> pts
I0916 13:19:41.898185 20275 net.cpp:124] Setting up PythonLayer
I0916 13:19:41.898452 20275 net.cpp:131] Top shape: 64 3 48 48 (442368)
I0916 13:19:41.898464 20275 net.cpp:131] Top shape: 64 1 (64)
I0916 13:19:41.898468 20275 net.cpp:131] Top shape: 64 4 (256)
I0916 13:19:41.898471 20275 net.cpp:131] Top shape: 64 10 (640)
I0916 13:19:41.898475 20275 net.cpp:139] Memory required for data: 1773312
I0916 13:19:41.898852 20275 layer_factory.hpp:77] Creating layer conv1
I0916 13:19:41.899051 20275 net.cpp:86] Creating Layer conv1
I0916 13:19:41.899058 20275 net.cpp:408] conv1 <- data
I0916 13:19:41.899288 20275 net.cpp:382] conv1 -> conv1
I0916 13:19:43.792529 20275 net.cpp:124] Setting up conv1
I0916 13:19:43.792587 20275 net.cpp:131] Top shape: 64 32 46 46 (4333568)
I0916 13:19:43.792608 20275 net.cpp:139] Memory required for data: 19107584
I0916 13:19:43.793052 20275 layer_factory.hpp:77] Creating layer relu1
I0916 13:19:43.793081 20275 net.cpp:86] Creating Layer relu1
I0916 13:19:43.793093 20275 net.cpp:408] relu1 <- conv1
I0916 13:19:43.793107 20275 net.cpp:369] relu1 -> conv1 (in-place)
I0916 13:19:43.793577 20275 net.cpp:124] Setting up relu1
I0916 13:19:43.793594 20275 net.cpp:131] Top shape: 64 32 46 46 (4333568)
I0916 13:19:43.793608 20275 net.cpp:139] Memory required for data: 36441856
I0916 13:19:43.793623 20275 layer_factory.hpp:77] Creating layer pool1
I0916 13:19:43.793639 20275 net.cpp:86] Creating Layer pool1
I0916 13:19:43.793650 20275 net.cpp:408] pool1 <- conv1
I0916 13:19:43.793663 20275 net.cpp:382] pool1 -> pool1
I0916 13:19:43.794245 20275 net.cpp:124] Setting up pool1
I0916 13:19:43.794258 20275 net.cpp:131] Top shape: 64 32 23 23 (1083392)
I0916 13:19:43.794271 20275 net.cpp:139] Memory required for data: 40775424
I0916 13:19:43.794281 20275 layer_factory.hpp:77] Creating layer conv2
I0916 13:19:43.794304 20275 net.cpp:86] Creating Layer conv2
I0916 13:19:43.794315 20275 net.cpp:408] conv2 <- pool1
I0916 13:19:43.794332 20275 net.cpp:382] conv2 -> conv2
I0916 13:19:43.800758 20275 net.cpp:124] Setting up conv2
I0916 13:19:43.800796 20275 net.cpp:131] Top shape: 64 64 21 21 (1806336)
I0916 13:19:43.800822 20275 net.cpp:139] Memory required for data: 48000768
I0916 13:19:43.800844 20275 layer_factory.hpp:77] Creating layer relu2
I0916 13:19:43.800990 20275 net.cpp:86] Creating Layer relu2
I0916 13:19:43.801002 20275 net.cpp:408] relu2 <- conv2
I0916 13:19:43.801038 20275 net.cpp:369] relu2 -> conv2 (in-place)
I0916 13:19:43.801264 20275 net.cpp:124] Setting up relu2
I0916 13:19:43.801273 20275 net.cpp:131] Top shape: 64 64 21 21 (1806336)
I0916 13:19:43.801285 20275 net.cpp:139] Memory required for data: 55226112
I0916 13:19:43.801296 20275 layer_factory.hpp:77] Creating layer pool2
I0916 13:19:43.801311 20275 net.cpp:86] Creating Layer pool2
I0916 13:19:43.801319 20275 net.cpp:408] pool2 <- conv2
I0916 13:19:43.801329 20275 net.cpp:382] pool2 -> pool2
I0916 13:19:43.801398 20275 net.cpp:124] Setting up pool2
I0916 13:19:43.801406 20275 net.cpp:131] Top shape: 64 64 10 10 (409600)
I0916 13:19:43.801416 20275 net.cpp:139] Memory required for data: 56864512
I0916 13:19:43.801424 20275 layer_factory.hpp:77] Creating layer conv3
I0916 13:19:43.801445 20275 net.cpp:86] Creating Layer conv3
I0916 13:19:43.801453 20275 net.cpp:408] conv3 <- pool2
I0916 13:19:43.801465 20275 net.cpp:382] conv3 -> conv3
I0916 13:19:43.806295 20275 net.cpp:124] Setting up conv3
I0916 13:19:43.806329 20275 net.cpp:131] Top shape: 64 64 8 8 (262144)
I0916 13:19:43.806341 20275 net.cpp:139] Memory required for data: 57913088
I0916 13:19:43.806360 20275 layer_factory.hpp:77] Creating layer relu3
I0916 13:19:43.806375 20275 net.cpp:86] Creating Layer relu3
I0916 13:19:43.806385 20275 net.cpp:408] relu3 <- conv3
I0916 13:19:43.806398 20275 net.cpp:369] relu3 -> conv3 (in-place)
I0916 13:19:43.806569 20275 net.cpp:124] Setting up relu3
I0916 13:19:43.806579 20275 net.cpp:131] Top shape: 64 64 8 8 (262144)
I0916 13:19:43.806591 20275 net.cpp:139] Memory required for data: 58961664
I0916 13:19:43.806603 20275 layer_factory.hpp:77] Creating layer pool3
I0916 13:19:43.806617 20275 net.cpp:86] Creating Layer pool3
I0916 13:19:43.806625 20275 net.cpp:408] pool3 <- conv3
I0916 13:19:43.806636 20275 net.cpp:382] pool3 -> pool3
I0916 13:19:43.806702 20275 net.cpp:124] Setting up pool3
I0916 13:19:43.806712 20275 net.cpp:131] Top shape: 64 64 4 4 (65536)
I0916 13:19:43.806722 20275 net.cpp:139] Memory required for data: 59223808
I0916 13:19:43.806730 20275 layer_factory.hpp:77] Creating layer conv4
I0916 13:19:43.806749 20275 net.cpp:86] Creating Layer conv4
I0916 13:19:43.806758 20275 net.cpp:408] conv4 <- pool3
I0916 13:19:43.806769 20275 net.cpp:382] conv4 -> conv4
I0916 13:19:43.812903 20275 net.cpp:124] Setting up conv4
I0916 13:19:43.812930 20275 net.cpp:131] Top shape: 64 128 3 3 (73728)
I0916 13:19:43.812940 20275 net.cpp:139] Memory required for data: 59518720
I0916 13:19:43.812955 20275 layer_factory.hpp:77] Creating layer relu4
I0916 13:19:43.812968 20275 net.cpp:86] Creating Layer relu4
I0916 13:19:43.812975 20275 net.cpp:408] relu4 <- conv4
I0916 13:19:43.812984 20275 net.cpp:369] relu4 -> conv4 (in-place)
I0916 13:19:43.813132 20275 net.cpp:124] Setting up relu4
I0916 13:19:43.813140 20275 net.cpp:131] Top shape: 64 128 3 3 (73728)
I0916 13:19:43.813148 20275 net.cpp:139] Memory required for data: 59813632
I0916 13:19:43.813156 20275 layer_factory.hpp:77] Creating layer fc5
I0916 13:19:43.813169 20275 net.cpp:86] Creating Layer fc5
I0916 13:19:43.813176 20275 net.cpp:408] fc5 <- conv4
I0916 13:19:43.813185 20275 net.cpp:382] fc5 -> fc5
I0916 13:19:43.815959 20275 net.cpp:124] Setting up fc5
I0916 13:19:43.815973 20275 net.cpp:131] Top shape: 64 256 (16384)
I0916 13:19:43.815982 20275 net.cpp:139] Memory required for data: 59879168
I0916 13:19:43.815992 20275 layer_factory.hpp:77] Creating layer relu5
I0916 13:19:43.816001 20275 net.cpp:86] Creating Layer relu5
I0916 13:19:43.816009 20275 net.cpp:408] relu5 <- fc5
I0916 13:19:43.816016 20275 net.cpp:369] relu5 -> fc5 (in-place)
I0916 13:19:43.816118 20275 net.cpp:124] Setting up relu5
I0916 13:19:43.816126 20275 net.cpp:131] Top shape: 64 256 (16384)
I0916 13:19:43.816133 20275 net.cpp:139] Memory required for data: 59944704
I0916 13:19:43.816150 20275 layer_factory.hpp:77] Creating layer drop5
I0916 13:19:43.816608 20275 net.cpp:86] Creating Layer drop5
I0916 13:19:43.816637 20275 net.cpp:408] drop5 <- fc5
I0916 13:19:43.816648 20275 net.cpp:369] drop5 -> fc5 (in-place)
I0916 13:19:43.816992 20275 net.cpp:124] Setting up drop5
I0916 13:19:43.817028 20275 net.cpp:131] Top shape: 64 256 (16384)
I0916 13:19:43.817040 20275 net.cpp:139] Memory required for data: 60010240
I0916 13:19:43.817051 20275 layer_factory.hpp:77] Creating layer fc5_drop5_0_split
I0916 13:19:43.817071 20275 net.cpp:86] Creating Layer fc5_drop5_0_split
I0916 13:19:43.817080 20275 net.cpp:408] fc5_drop5_0_split <- fc5
I0916 13:19:43.817092 20275 net.cpp:382] fc5_drop5_0_split -> fc5_drop5_0_split_0
I0916 13:19:43.817108 20275 net.cpp:382] fc5_drop5_0_split -> fc5_drop5_0_split_1
I0916 13:19:43.817126 20275 net.cpp:382] fc5_drop5_0_split -> fc5_drop5_0_split_2
I0916 13:19:43.817220 20275 net.cpp:124] Setting up fc5_drop5_0_split
I0916 13:19:43.817230 20275 net.cpp:131] Top shape: 64 256 (16384)
I0916 13:19:43.817240 20275 net.cpp:131] Top shape: 64 256 (16384)
I0916 13:19:43.817250 20275 net.cpp:131] Top shape: 64 256 (16384)
I0916 13:19:43.817260 20275 net.cpp:139] Memory required for data: 60206848
I0916 13:19:43.817267 20275 layer_factory.hpp:77] Creating layer fc6-1
I0916 13:19:43.817283 20275 net.cpp:86] Creating Layer fc6-1
I0916 13:19:43.817292 20275 net.cpp:408] fc6-1 <- fc5_drop5_0_split_0
I0916 13:19:43.817308 20275 net.cpp:382] fc6-1 -> fc6-1
I0916 13:19:43.817504 20275 net.cpp:124] Setting up fc6-1
I0916 13:19:43.817513 20275 net.cpp:131] Top shape: 64 2 (128)
I0916 13:19:43.817520 20275 net.cpp:139] Memory required for data: 60207360
I0916 13:19:43.817533 20275 layer_factory.hpp:77] Creating layer cls_bridge
I0916 13:19:43.818393 20275 net.cpp:86] Creating Layer cls_bridge
I0916 13:19:43.818408 20275 net.cpp:408] cls_bridge <- fc6-1
I0916 13:19:43.818420 20275 net.cpp:408] cls_bridge <- label
I0916 13:19:43.818434 20275 net.cpp:382] cls_bridge -> fc6-1-valid
I0916 13:19:43.818454 20275 net.cpp:382] cls_bridge -> label-valid
I0916 13:19:43.818708 20275 net.cpp:124] Setting up cls_bridge
I0916 13:19:43.818723 20275 net.cpp:131] Top shape: 64 2 (128)
I0916 13:19:43.818734 20275 net.cpp:131] Top shape: 64 1 (64)
I0916 13:19:43.818744 20275 net.cpp:139] Memory required for data: 60208128
I0916 13:19:43.818753 20275 layer_factory.hpp:77] Creating layer fc6-1-valid_cls_bridge_0_split
I0916 13:19:43.818768 20275 net.cpp:86] Creating Layer fc6-1-valid_cls_bridge_0_split
I0916 13:19:43.818778 20275 net.cpp:408] fc6-1-valid_cls_bridge_0_split <- fc6-1-valid
I0916 13:19:43.818790 20275 net.cpp:382] fc6-1-valid_cls_bridge_0_split -> fc6-1-valid_cls_bridge_0_split_0
I0916 13:19:43.818805 20275 net.cpp:382] fc6-1-valid_cls_bridge_0_split -> fc6-1-valid_cls_bridge_0_split_1
I0916 13:19:43.818869 20275 net.cpp:124] Setting up fc6-1-valid_cls_bridge_0_split
I0916 13:19:43.818881 20275 net.cpp:131] Top shape: 64 2 (128)
I0916 13:19:43.818890 20275 net.cpp:131] Top shape: 64 2 (128)
I0916 13:19:43.818899 20275 net.cpp:139] Memory required for data: 60209152
I0916 13:19:43.818910 20275 layer_factory.hpp:77] Creating layer label-valid_cls_bridge_1_split
I0916 13:19:43.818922 20275 net.cpp:86] Creating Layer label-valid_cls_bridge_1_split
I0916 13:19:43.818931 20275 net.cpp:408] label-valid_cls_bridge_1_split <- label-valid
I0916 13:19:43.818965 20275 net.cpp:382] label-valid_cls_bridge_1_split -> label-valid_cls_bridge_1_split_0
I0916 13:19:43.818975 20275 net.cpp:382] label-valid_cls_bridge_1_split -> label-valid_cls_bridge_1_split_1
I0916 13:19:43.819021 20275 net.cpp:124] Setting up label-valid_cls_bridge_1_split
I0916 13:19:43.819028 20275 net.cpp:131] Top shape: 64 1 (64)
I0916 13:19:43.819036 20275 net.cpp:131] Top shape: 64 1 (64)
I0916 13:19:43.819042 20275 net.cpp:139] Memory required for data: 60209664
I0916 13:19:43.819048 20275 layer_factory.hpp:77] Creating layer ClassifyLoss
I0916 13:19:43.819504 20275 net.cpp:86] Creating Layer ClassifyLoss
I0916 13:19:43.819530 20275 net.cpp:408] ClassifyLoss <- fc6-1-valid_cls_bridge_0_split_0
I0916 13:19:43.819538 20275 net.cpp:408] ClassifyLoss <- label-valid_cls_bridge_1_split_0
…
