…
affe.cpp:266] Use GPU with device ID 0
I0915 17:26:57.968515 22562 caffe.cpp:270] GPU device name: TITAN V
I0915 17:26:58.290186 22562 net.cpp:296] The NetState phase (1) differed from the phase (0) specified by a rule in layer cls_Acc
I0915 17:26:58.290216 22562 net.cpp:53] Initializing net from parameters: 
name: "face_48"
state {
  phase: TEST
  level: 0
  stage: ""
}
layer {
  name: "PythonLayer"
  type: "Python"
  top: "data"
  top: "label"
  top: "roi"
  top: "pts"
  python_param {
    module: "pythonLayer"
    layer: "Data_Layer_train"
  }
}
layer {
  name: "conv1"
  type: "Convolution"
  bottom: "data"
  top: "conv1"
  param {
    lr_mult: 1
    decay_mult: 1
  }
  param {
    lr_mult: 2
    decay_mult: 1
  }
  convolution_param {
    num_output: 32
    kernel_size: 3
    weight_filler {
      type: "gaussian"
      std: 0.0001
    }
    bias_filler {
      type: "constant"
    }
  }
}
layer {
  name: "relu1"
  type: "PReLU"
  bottom: "conv1"
  top: "conv1"
}
layer {
  name: "pool1"
  type: "Pooling"
  bottom: "conv1"
  top: "pool1"
  pooling_param {
    pool: MAX
    kernel_size: 3
    stride: 2
  }
}
layer {
  name: "conv2"
  type: "Convolution"
  bottom: "pool1"
  top: "conv2"
  param {
    lr_mult: 1
    decay_mult: 1
  }
  param {
    lr_mult: 2
    decay_mult: 1
  }
  convolution_param {
    num_output: 64
    kernel_size: 3
    weight_filler {
      type: "gaussian"
      std: 0.0001
    }
    bias_filler {
      type: "constant"
    }
  }
}
layer {
  name: "relu2"
  type: "PReLU"
  bottom: "conv2"
  top: "conv2"
}
layer {
  name: "pool2"
  type: "Pooling"
  bottom: "conv2"
  top: "pool2"
  pooling_param {
    pool: MAX
    kernel_size: 3
    stride: 2
  }
}
layer {
  name: "conv3"
  type: "Convolution"
  bottom: "pool2"
  top: "conv3"
  param {
    lr_mult: 1
    decay_mult: 1
  }
  param {
    lr_mult: 2
    decay_mult: 1
  }
  convolution_param {
    num_output: 64
    kernel_size: 3
    stride: 1
    weight_filler {
      type: "xavier"
    }
    bias_filler {
      type: "constant"
      value: 0
    }
  }
}
layer {
  name: "relu3"
  type: "PReLU"
  bottom: "conv3"
  top: "conv3"
}
layer {
  name: "pool3"
  type: "Pooling"
  bottom: "conv3"
  top: "pool3"
  pooling_param {
    pool: MAX
    kernel_size: 2
    stride: 2
  }
}
layer {
  name: "conv4"
  type: "Convolution"
  bottom: "pool3"
  top: "conv4"
  param {
    lr_mult: 1
    decay_mult: 1
  }
  param {
    lr_mult: 2
    decay_mult: 1
  }
  convolution_param {
    num_output: 128
    kernel_size: 2
    stride: 1
    weight_filler {
      type: "xavier"
    }
    bias_filler {
      type: "constant"
      value: 0
    }
  }
}
layer {
  name: "relu4"
  type: "PReLU"
  bottom: "conv4"
  top: "conv4"
}
layer {
  name: "fc5"
  type: "InnerProduct"
  bottom: "conv4"
  top: "fc5"
  param {
    lr_mult: 1
    decay_mult: 1
  }
  param {
    lr_mult: 2
    decay_mult: 1
  }
  inner_product_param {
    num_output: 256
    weight_filler {
      type: "xavier"
    }
    bias_filler {
      type: "constant"
      value: 0
    }
  }
}
layer {
  name: "relu5"
  type: "PReLU"
  bottom: "fc5"
  top: "fc5"
}
layer {
  name: "drop5"
  type: "Dropout"
  bottom: "fc5"
  top: "fc5"
  dropout_param {
    dropout_ratio: 0.5
  }
}
layer {
  name: "fc6-1"
  type: "InnerProduct"
  bottom: "fc5"
  top: "fc6-1"
  param {
    lr_mult: 1
    decay_mult: 1
  }
  param {
    lr_mult: 2
    decay_mult: 1
  }
  inner_product_param {
    num_output: 2
    weight_filler {
      type: "xavier"
    }
    bias_filler {
      type: "constant"
      value: 0
    }
  }
}
layer {
  name: "cls_bridge"
  type: "Python"
  bottom: "fc6-1"
  bottom: "label"
  top: "fc6-1-valid"
  top: "label-valid"
  python_param {
    module: "pythonLayer"
    layer: "cls_Layer"
  }
}
layer {
  name: "ClassifyLoss"
  type: "SoftmaxWithLoss"
  bottom: "fc6-1-valid"
  bottom: "label-valid"
  top: "ClassifyLoss"
  loss_weight: 1
  propagate_down: true
  propagate_down: false
}
layer {
  name: "fc6-2"
  type: "InnerProduct"
  bottom: "fc5"
  top: "fc6-2"
  param {
    lr_mult: 1
    decay_mult: 1
  }
  param {
    lr_mult: 2
    decay_mult: 1
  }
  inner_product_param {
    num_output: 4
    weight_filler {
      type: "xavier"
    }
    bias_filler {
      type: "constant"
      value: 0
    }
  }
}
layer {
  name: "RegressionLoss"
  type: "Python"
  bottom: "fc6-2"
  bottom: "roi"
  top: "RegressionLoss"
  loss_weight: 0.5
  python_param {
    module: "pythonLayer"
    layer: "regression_Layer"
  }
}
layer {
  name: "fc6-3"
  type: "InnerProduct"
  bottom: "fc5"
  top: "fc6-3"
  param {
    lr_mult: 1
    decay_mult: 1
  }
  param {
    lr_mult: 2
    decay_mult: 1
  }
  inner_product_param {
    num_output: 10
    weight_filler {
      type: "xavier"
    }
    bias_filler {
      type: "constant"
      value: 0
    }
  }
}
layer {
  name: "LandmarkLoss"
  type: "Python"
  bottom: "fc6-3"
  bottom: "pts"
  top: "LandmarkLoss"
  loss_weight: 1
  python_param {
    module: "pythonLayer"
    layer: "regression_Layer"
  }
}
I0915 17:26:58.290398 22562 layer_factory.hpp:77] Creating layer PythonLayer
I0915 17:26:58.760535 22562 net.cpp:86] Creating Layer PythonLayer
I0915 17:26:58.760577 22562 net.cpp:382] PythonLayer -> data
I0915 17:26:58.760597 22562 net.cpp:382] PythonLayer -> label
I0915 17:26:58.760607 22562 net.cpp:382] PythonLayer -> roi
I0915 17:26:58.760612 22562 net.cpp:382] PythonLayer -> pts
I0915 17:26:59.761471 22562 net.cpp:124] Setting up PythonLayer
I0915 17:26:59.761497 22562 net.cpp:131] Top shape: 64 3 48 48 (442368)
I0915 17:26:59.761503 22562 net.cpp:131] Top shape: 64 1 (64)
I0915 17:26:59.761507 22562 net.cpp:131] Top shape: 64 4 (256)
I0915 17:26:59.761510 22562 net.cpp:131] Top shape: 64 10 (640)
I0915 17:26:59.761512 22562 net.cpp:139] Memory required for data: 1773312
I0915 17:26:59.761523 22562 layer_factory.hpp:77] Creating layer conv1
I0915 17:26:59.761548 22562 net.cpp:86] Creating Layer conv1
I0915 17:26:59.761554 22562 net.cpp:408] conv1 <- data
I0915 17:26:59.761566 22562 net.cpp:382] conv1 -> conv1
I0915 17:27:00.805177 22562 net.cpp:124] Setting up conv1
I0915 17:27:00.805205 22562 net.cpp:131] Top shape: 64 32 46 46 (4333568)
I0915 17:27:00.805212 22562 net.cpp:139] Memory required for data: 19107584
I0915 17:27:00.805236 22562 layer_factory.hpp:77] Creating layer relu1
I0915 17:27:00.805244 22562 net.cpp:86] Creating Layer relu1
I0915 17:27:00.805248 22562 net.cpp:408] relu1 <- conv1
I0915 17:27:00.805254 22562 net.cpp:369] relu1 -> conv1 (in-place)
I0915 17:27:00.805358 22562 net.cpp:124] Setting up relu1
I0915 17:27:00.805361 22562 net.cpp:131] Top shape: 64 32 46 46 (4333568)
I0915 17:27:00.805366 22562 net.cpp:139] Memory required for data: 36441856
I0915 17:27:00.805369 22562 layer_factory.hpp:77] Creating layer pool1
I0915 17:27:00.805374 22562 net.cpp:86] Creating Layer pool1
I0915 17:27:00.805377 22562 net.cpp:408] pool1 <- conv1
I0915 17:27:00.805383 22562 net.cpp:382] pool1 -> pool1
I0915 17:27:00.805413 22562 net.cpp:124] Setting up pool1
I0915 17:27:00.805416 22562 net.cpp:131] Top shape: 64 32 23 23 (1083392)
I0915 17:27:00.805419 22562 net.cpp:139] Memory required for data: 40775424
I0915 17:27:00.805423 22562 layer_factory.hpp:77] Creating layer conv2
I0915 17:27:00.805433 22562 net.cpp:86] Creating Layer conv2
I0915 17:27:00.805435 22562 net.cpp:408] conv2 <- pool1
I0915 17:27:00.805438 22562 net.cpp:382] conv2 -> conv2
I0915 17:27:00.807078 22562 net.cpp:124] Setting up conv2
I0915 17:27:00.807091 22562 net.cpp:131] Top shape: 64 64 21 21 (1806336)
I0915 17:27:00.807097 22562 net.cpp:139] Memory required for data: 48000768
I0915 17:27:00.807104 22562 layer_factory.hpp:77] Creating layer relu2
I0915 17:27:00.807111 22562 net.cpp:86] Creating Layer relu2
I0915 17:27:00.807113 22562 net.cpp:408] relu2 <- conv2
I0915 17:27:00.807117 22562 net.cpp:369] relu2 -> conv2 (in-place)
I0915 17:27:00.807188 22562 net.cpp:124] Setting up relu2
I0915 17:27:00.807191 22562 net.cpp:131] Top shape: 64 64 21 21 (1806336)
I0915 17:27:00.807194 22562 net.cpp:139] Memory required for data: 55226112
I0915 17:27:00.807200 22562 layer_factory.hpp:77] Creating layer pool2
I0915 17:27:00.807204 22562 net.cpp:86] Creating Layer pool2
I0915 17:27:00.807214 22562 net.cpp:408] pool2 <- conv2
I0915 17:27:00.807226 22562 net.cpp:382] pool2 -> pool2
I0915 17:27:00.807247 22562 net.cpp:124] Setting up pool2
I0915 17:27:00.807250 22562 net.cpp:131] Top shape: 64 64 10 10 (409600)
I0915 17:27:00.807253 22562 net.cpp:139] Memory required for data: 56864512
I0915 17:27:00.807256 22562 layer_factory.hpp:77] Creating layer conv3
I0915 17:27:00.807265 22562 net.cpp:86] Creating Layer conv3
I0915 17:27:00.807267 22562 net.cpp:408] conv3 <- pool2
I0915 17:27:00.807271 22562 net.cpp:382] conv3 -> conv3
I0915 17:27:00.808884 22562 net.cpp:124] Setting up conv3
I0915 17:27:00.808897 22562 net.cpp:131] Top shape: 64 64 8 8 (262144)
I0915 17:27:00.808902 22562 net.cpp:139] Memory required for data: 57913088
I0915 17:27:00.808907 22562 layer_factory.hpp:77] Creating layer relu3
I0915 17:27:00.808913 22562 net.cpp:86] Creating Layer relu3
I0915 17:27:00.808917 22562 net.cpp:408] relu3 <- conv3
I0915 17:27:00.808921 22562 net.cpp:369] relu3 -> conv3 (in-place)
I0915 17:27:00.808974 22562 net.cpp:124] Setting up relu3
I0915 17:27:00.808977 22562 net.cpp:131] Top shape: 64 64 8 8 (262144)
I0915 17:27:00.808980 22562 net.cpp:139] Memory required for data: 58961664
I0915 17:27:00.808985 22562 layer_factory.hpp:77] Creating layer pool3
I0915 17:27:00.808990 22562 net.cpp:86] Creating Layer pool3
I0915 17:27:00.808991 22562 net.cpp:408] pool3 <- conv3
I0915 17:27:00.808995 22562 net.cpp:382] pool3 -> pool3
I0915 17:27:00.809021 22562 net.cpp:124] Setting up pool3
I0915 17:27:00.809024 22562 net.cpp:131] Top shape: 64 64 4 4 (65536)
I0915 17:27:00.809028 22562 net.cpp:139] Memory required for data: 59223808
I0915 17:27:00.809031 22562 layer_factory.hpp:77] Creating layer conv4
I0915 17:27:00.809041 22562 net.cpp:86] Creating Layer conv4
I0915 17:27:00.809043 22562 net.cpp:408] conv4 <- pool3
I0915 17:27:00.809046 22562 net.cpp:382] conv4 -> conv4
I0915 17:27:00.811672 22562 net.cpp:124] Setting up conv4
I0915 17:27:00.811686 22562 net.cpp:131] Top shape: 64 128 3 3 (73728)
I0915 17:27:00.811689 22562 net.cpp:139] Memory required for data: 59518720
I0915 17:27:00.811695 22562 layer_factory.hpp:77] Creating layer relu4
I0915 17:27:00.811700 22562 net.cpp:86] Creating Layer relu4
I0915 17:27:00.811703 22562 net.cpp:408] relu4 <- conv4
I0915 17:27:00.811707 22562 net.cpp:369] relu4 -> conv4 (in-place)
I0915 17:27:00.811758 22562 net.cpp:124] Setting up relu4
I0915 17:27:00.811761 22562 net.cpp:131] Top shape: 64 128 3 3 (73728)
I0915 17:27:00.811764 22562 net.cpp:139] Memory required for data: 59813632
I0915 17:27:00.811767 22562 layer_factory.hpp:77] Creating layer fc5
I0915 17:27:00.811777 22562 net.cpp:86] Creating Layer fc5
I0915 17:27:00.811780 22562 net.cpp:408] fc5 <- conv4
I0915 17:27:00.811784 22562 net.cpp:382] fc5 -> fc5
I0915 17:27:00.812983 22562 net.cpp:124] Setting up fc5
I0915 17:27:00.812989 22562 net.cpp:131] Top shape: 64 256 (16384)
I0915 17:27:00.812994 22562 net.cpp:139] Memory required for data: 59879168
I0915 17:27:00.812999 22562 layer_factory.hpp:77] Creating layer relu5
I0915 17:27:00.813002 22562 net.cpp:86] Creating Layer relu5
I0915 17:27:00.813016 22562 net.cpp:408] relu5 <- fc5
I0915 17:27:00.813020 22562 net.cpp:369] relu5 -> fc5 (in-place)
I0915 17:27:00.813064 22562 net.cpp:124] Setting up relu5
I0915 17:27:00.813067 22562 net.cpp:131] Top shape: 64 256 (16384)
I0915 17:27:00.813071 22562 net.cpp:139] Memory required for data: 59944704
I0915 17:27:00.813074 22562 layer_factory.hpp:77] Creating layer drop5
I0915 17:27:00.813084 22562 net.cpp:86] Creating Layer drop5
I0915 17:27:00.813087 22562 net.cpp:408] drop5 <- fc5
I0915 17:27:00.813091 22562 net.cpp:369] drop5 -> fc5 (in-place)
I0915 17:27:00.813109 22562 net.cpp:124] Setting up drop5
I0915 17:27:00.813112 22562 net.cpp:131] Top shape: 64 256 (16384)
I0915 17:27:00.813115 22562 net.cpp:139] Memory required for data: 60010240
I0915 17:27:00.813117 22562 layer_factory.hpp:77] Creating layer fc5_drop5_0_split
I0915 17:27:00.813127 22562 net.cpp:86] Creating Layer fc5_drop5_0_split
I0915 17:27:00.813135 22562 net.cpp:408] fc5_drop5_0_split <- fc5
I0915 17:27:00.813144 22562 net.cpp:382] fc5_drop5_0_split -> fc5_drop5_0_split_0
I0915 17:27:00.813150 22562 net.cpp:382] fc5_drop5_0_split -> fc5_drop5_0_split_1
I0915 17:27:00.813155 22562 net.cpp:382] fc5_drop5_0_split -> fc5_drop5_0_split_2
I0915 17:27:00.813181 22562 net.cpp:124] Setting up fc5_drop5_0_split
I0915 17:27:00.813184 22562 net.cpp:131] Top shape: 64 256 (16384)
I0915 17:27:00.813187 22562 net.cpp:131] Top shape: 64 256 (16384)
I0915 17:27:00.813190 22562 net.cpp:131] Top shape: 64 256 (16384)
I0915 17:27:00.813192 22562 net.cpp:139] Memory required for data: 60206848
I0915 17:27:00.813196 22562 layer_factory.hpp:77] Creating layer fc6-1
I0915 17:27:00.813202 22562 net.cpp:86] Creating Layer fc6-1
I0915 17:27:00.813205 22562 net.cpp:408] fc6-1 <- fc5_drop5_0_split_0
I0915 17:27:00.813210 22562 net.cpp:382] fc6-1 -> fc6-1
I0915 17:27:00.813263 22562 net.cpp:124] Setting up fc6-1
I0915 17:27:00.813267 22562 net.cpp:131] Top shape: 64 2 (128)
I0915 17:27:00.813271 22562 net.cpp:139] Memory required for data: 60207360
I0915 17:27:00.813275 22562 layer_factory.hpp:77] Creating layer cls_bridge
I0915 17:27:00.813325 22562 net.cpp:86] Creating Layer cls_bridge
I0915 17:27:00.813328 22562 net.cpp:408] cls_bridge <- fc6-1
I0915 17:27:00.813333 22562 net.cpp:408] cls_bridge <- label
I0915 17:27:00.813335 22562 net.cpp:382] cls_bridge -> fc6-1-valid
I0915 17:27:00.813340 22562 net.cpp:382] cls_bridge -> label-valid
I0915 17:27:00.813441 22562 net.cpp:124] Setting up cls_bridge
I0915 17:27:00.813446 22562 net.cpp:131] Top shape: 64 2 (128)
I0915 17:27:00.813449 22562 net.cpp:131] Top shape: 64 1 (64)
I0915 17:27:00.813452 22562 net.cpp:139] Memory required for data: 60208128
I0915 17:27:00.813454 22562 layer_factory.hpp:77] Creating layer ClassifyLoss
I0915 17:27:00.813462 22562 net.cpp:86] Creating Layer ClassifyLoss
I0915 17:27:00.813464 22562 net.cpp:408] ClassifyLoss <- fc6-1-valid
I0915 17:27:00.813468 22562 net.cpp:408] ClassifyLoss <- label-valid
I0915 17:27:00.813472 22562 net.cpp:382] ClassifyLoss -> ClassifyLoss
I0915 17:27:00.813477 22562 layer_factory.hpp:77] Creating layer ClassifyLoss
I0915 17:27:00.813812 22562 net.cpp:124] Setting up ClassifyLoss
I0915 17:27:00.813820 22562 net.cpp:131] Top shape: (1)
I0915 17:27:00.813824 22562 net.cpp:134]     with loss weight 1
I0915 17:27:00.813839 22562 net.cpp:139] Memory required for data: 60208132
I0915 17:27:00.813843 22562 layer_factory.hpp:77] Creating layer fc6-2
I0915 17:27:00.813851 22562 net.cpp:86] Creating Layer fc6-2
I0915 17:27:00.813854 22562 net.cpp:408] fc6-2 <- fc5_drop5_0_split_1
I0915 17:27:00.813858 22562 net.cpp:382] fc6-2 -> fc6-2
I0915 17:27:00.813921 22562 net.cpp:124] Setting up fc6-2
I0915 17:27:00.813925 22562 net.cpp:131] Top shape: 64 4 (256)
I0915 17:27:00.813927 22562 net.cpp:139] Memory required for data: 60209156
I0915 17:27:00.813932 22562 layer_factory.hpp:77] Creating layer RegressionLoss
I0915 17:27:00.813961 22562 net.cpp:86] Creating Layer RegressionLoss
I0915 17:27:00.813964 22562 net.cpp:408] RegressionLoss <- fc6-2
I0915 17:27:00.813967 22562 net.cpp:408] RegressionLoss <- roi
I0915 17:27:00.813971 22562 net.cpp:382] RegressionLoss -> RegressionLoss
I0915 17:27:00.814066 22562 net.cpp:124] Setting up RegressionLoss
I0915 17:27:00.814070 22562 net.cpp:131] Top shape: 1 (1)
I0915 17:27:00.814074 22562 net.cpp:134]     with loss weight 0.5
I0915 17:27:00.814079 22562 net.cpp:139] Memory required for data: 60209160
I0915 17:27:00.814081 22562 layer_factory.hpp:77] Creating layer fc6-3
I0915 17:27:00.814087 22562 net.cpp:86] Creating Layer fc6-3
I0915 17:27:00.814090 22562 net.cpp:408] fc6-3 <- fc5_drop5_0_split_2
I0915 17:27:00.814095 22562 net.cpp:382] fc6-3 -> fc6-3
I0915 17:27:00.814160 22562 net.cpp:124] Setting up fc6-3
I0915 17:27:00.814163 22562 net.cpp:131] Top shape: 64 10 (640)
I0915 17:27:00.814167 22562 net.cpp:139] Memory required for data: 60211720
I0915 17:27:00.814170 22562 layer_factory.hpp:77] Creating layer LandmarkLoss
I0915 17:27:00.814188 22562 net.cpp:86] Creating Layer LandmarkLoss
I0915 17:27:00.814196 22562 net.cpp:408] LandmarkLoss <- fc6-3
I0915 17:27:00.814199 22562 net.cpp:408] LandmarkLoss <- pts
I0915 17:27:00.814203 22562 net.cpp:382] LandmarkLoss -> LandmarkLoss
I0915 17:27:00.814261 22562 net.cpp:124] Setting up LandmarkLoss
I0915 17:27:00.814265 22562 net.cpp:131] Top shape: 1 (1)
I0915 17:27:00.814270 22562 net.cpp:134]     with loss weight 1
I0915 17:27:00.814273 22562 net.cpp:139] Memory required for data: 60211724
I0915 17:27:00.814275 22562 net.cpp:200] LandmarkLoss needs backward computation.
I0915 17:27:00.814282 22562 net.cpp:200] fc6-3 needs backward computation.
I0915 17:27:00.814285 22562 net.cpp:200] RegressionLoss needs backward computation.
I0915 17:27:00.814288 22562 net.cpp:200] fc6-2 needs backward computation.
…
