…
affe.cpp:266] Use GPU with device ID 0
I0915 17:28:08.328876 22614 caffe.cpp:270] GPU device name: TITAN V
I0915 17:28:08.647680 22614 net.cpp:296] The NetState phase (1) differed from the phase (0) specified by a rule in layer cls_Acc
I0915 17:28:08.647713 22614 net.cpp:53] Initializing net from parameters: 
name: "face_48"
state {
  phase: TEST
  level: 0
  stage: ""
}
layer {
  name: "PythonLayer"
  type: "Python"
  top: "data"
  top: "label"
  top: "roi"
  top: "pts"
  python_param {
    module: "pythonLayer"
    layer: "Data_Layer_train"
  }
}
layer {
  name: "conv1"
  type: "Convolution"
  bottom: "data"
  top: "conv1"
  param {
    lr_mult: 1
    decay_mult: 1
  }
  param {
    lr_mult: 2
    decay_mult: 1
  }
  convolution_param {
    num_output: 32
    kernel_size: 3
    weight_filler {
      type: "gaussian"
      std: 0.0001
    }
    bias_filler {
      type: "constant"
    }
  }
}
layer {
  name: "relu1"
  type: "PReLU"
  bottom: "conv1"
  top: "conv1"
}
layer {
  name: "pool1"
  type: "Pooling"
  bottom: "conv1"
  top: "pool1"
  pooling_param {
    pool: MAX
    kernel_size: 3
    stride: 2
  }
}
layer {
  name: "conv2"
  type: "Convolution"
  bottom: "pool1"
  top: "conv2"
  param {
    lr_mult: 1
    decay_mult: 1
  }
  param {
    lr_mult: 2
    decay_mult: 1
  }
  convolution_param {
    num_output: 64
    kernel_size: 3
    weight_filler {
      type: "gaussian"
      std: 0.0001
    }
    bias_filler {
      type: "constant"
    }
  }
}
layer {
  name: "relu2"
  type: "PReLU"
  bottom: "conv2"
  top: "conv2"
}
layer {
  name: "pool2"
  type: "Pooling"
  bottom: "conv2"
  top: "pool2"
  pooling_param {
    pool: MAX
    kernel_size: 3
    stride: 2
  }
}
layer {
  name: "conv3"
  type: "Convolution"
  bottom: "pool2"
  top: "conv3"
  param {
    lr_mult: 1
    decay_mult: 1
  }
  param {
    lr_mult: 2
    decay_mult: 1
  }
  convolution_param {
    num_output: 64
    kernel_size: 3
    stride: 1
    weight_filler {
      type: "xavier"
    }
    bias_filler {
      type: "constant"
      value: 0
    }
  }
}
layer {
  name: "relu3"
  type: "PReLU"
  bottom: "conv3"
  top: "conv3"
}
layer {
  name: "pool3"
  type: "Pooling"
  bottom: "conv3"
  top: "pool3"
  pooling_param {
    pool: MAX
    kernel_size: 2
    stride: 2
  }
}
layer {
  name: "conv4"
  type: "Convolution"
  bottom: "pool3"
  top: "conv4"
  param {
    lr_mult: 1
    decay_mult: 1
  }
  param {
    lr_mult: 2
    decay_mult: 1
  }
  convolution_param {
    num_output: 128
    kernel_size: 2
    stride: 1
    weight_filler {
      type: "xavier"
    }
    bias_filler {
      type: "constant"
      value: 0
    }
  }
}
layer {
  name: "relu4"
  type: "PReLU"
  bottom: "conv4"
  top: "conv4"
}
layer {
  name: "fc5"
  type: "InnerProduct"
  bottom: "conv4"
  top: "fc5"
  param {
    lr_mult: 1
    decay_mult: 1
  }
  param {
    lr_mult: 2
    decay_mult: 1
  }
  inner_product_param {
    num_output: 256
    weight_filler {
      type: "xavier"
    }
    bias_filler {
      type: "constant"
      value: 0
    }
  }
}
layer {
  name: "relu5"
  type: "PReLU"
  bottom: "fc5"
  top: "fc5"
}
layer {
  name: "drop5"
  type: "Dropout"
  bottom: "fc5"
  top: "fc5"
  dropout_param {
    dropout_ratio: 0.5
  }
}
layer {
  name: "fc6-1"
  type: "InnerProduct"
  bottom: "fc5"
  top: "fc6-1"
  param {
    lr_mult: 1
    decay_mult: 1
  }
  param {
    lr_mult: 2
    decay_mult: 1
  }
  inner_product_param {
    num_output: 2
    weight_filler {
      type: "xavier"
    }
    bias_filler {
      type: "constant"
      value: 0
    }
  }
}
layer {
  name: "cls_bridge"
  type: "Python"
  bottom: "fc6-1"
  bottom: "label"
  top: "fc6-1-valid"
  top: "label-valid"
  python_param {
    module: "pythonLayer"
    layer: "cls_Layer"
  }
}
layer {
  name: "ClassifyLoss"
  type: "SoftmaxWithLoss"
  bottom: "fc6-1-valid"
  bottom: "label-valid"
  top: "ClassifyLoss"
  loss_weight: 1
  propagate_down: true
  propagate_down: false
}
layer {
  name: "fc6-2"
  type: "InnerProduct"
  bottom: "fc5"
  top: "fc6-2"
  param {
    lr_mult: 1
    decay_mult: 1
  }
  param {
    lr_mult: 2
    decay_mult: 1
  }
  inner_product_param {
    num_output: 4
    weight_filler {
      type: "xavier"
    }
    bias_filler {
      type: "constant"
      value: 0
    }
  }
}
layer {
  name: "RegressionLoss"
  type: "Python"
  bottom: "fc6-2"
  bottom: "roi"
  top: "RegressionLoss"
  loss_weight: 0.5
  python_param {
    module: "pythonLayer"
    layer: "regression_Layer"
  }
}
layer {
  name: "fc6-3"
  type: "InnerProduct"
  bottom: "fc5"
  top: "fc6-3"
  param {
    lr_mult: 1
    decay_mult: 1
  }
  param {
    lr_mult: 2
    decay_mult: 1
  }
  inner_product_param {
    num_output: 10
    weight_filler {
      type: "xavier"
    }
    bias_filler {
      type: "constant"
      value: 0
    }
  }
}
layer {
  name: "LandmarkLoss"
  type: "Python"
  bottom: "fc6-3"
  bottom: "pts"
  top: "LandmarkLoss"
  loss_weight: 1
  python_param {
    module: "pythonLayer"
    layer: "regression_Layer"
  }
}
I0915 17:28:08.647895 22614 layer_factory.hpp:77] Creating layer PythonLayer
I0915 17:28:09.129001 22614 net.cpp:86] Creating Layer PythonLayer
I0915 17:28:09.129055 22614 net.cpp:382] PythonLayer -> data
I0915 17:28:09.129076 22614 net.cpp:382] PythonLayer -> label
I0915 17:28:09.129086 22614 net.cpp:382] PythonLayer -> roi
I0915 17:28:09.129091 22614 net.cpp:382] PythonLayer -> pts
I0915 17:28:10.130125 22614 net.cpp:124] Setting up PythonLayer
I0915 17:28:10.130153 22614 net.cpp:131] Top shape: 64 3 48 48 (442368)
I0915 17:28:10.130161 22614 net.cpp:131] Top shape: 64 1 (64)
I0915 17:28:10.130164 22614 net.cpp:131] Top shape: 64 4 (256)
I0915 17:28:10.130167 22614 net.cpp:131] Top shape: 64 10 (640)
I0915 17:28:10.130169 22614 net.cpp:139] Memory required for data: 1773312
I0915 17:28:10.130179 22614 layer_factory.hpp:77] Creating layer conv1
I0915 17:28:10.130205 22614 net.cpp:86] Creating Layer conv1
I0915 17:28:10.130211 22614 net.cpp:408] conv1 <- data
I0915 17:28:10.130223 22614 net.cpp:382] conv1 -> conv1
I0915 17:28:11.177873 22614 net.cpp:124] Setting up conv1
I0915 17:28:11.177904 22614 net.cpp:131] Top shape: 64 32 46 46 (4333568)
I0915 17:28:11.177911 22614 net.cpp:139] Memory required for data: 19107584
I0915 17:28:11.177937 22614 layer_factory.hpp:77] Creating layer relu1
I0915 17:28:11.177945 22614 net.cpp:86] Creating Layer relu1
I0915 17:28:11.177949 22614 net.cpp:408] relu1 <- conv1
I0915 17:28:11.177954 22614 net.cpp:369] relu1 -> conv1 (in-place)
I0915 17:28:11.178058 22614 net.cpp:124] Setting up relu1
I0915 17:28:11.178062 22614 net.cpp:131] Top shape: 64 32 46 46 (4333568)
I0915 17:28:11.178066 22614 net.cpp:139] Memory required for data: 36441856
I0915 17:28:11.178071 22614 layer_factory.hpp:77] Creating layer pool1
I0915 17:28:11.178076 22614 net.cpp:86] Creating Layer pool1
I0915 17:28:11.178078 22614 net.cpp:408] pool1 <- conv1
I0915 17:28:11.178083 22614 net.cpp:382] pool1 -> pool1
I0915 17:28:11.178110 22614 net.cpp:124] Setting up pool1
I0915 17:28:11.178113 22614 net.cpp:131] Top shape: 64 32 23 23 (1083392)
I0915 17:28:11.178117 22614 net.cpp:139] Memory required for data: 40775424
I0915 17:28:11.178120 22614 layer_factory.hpp:77] Creating layer conv2
I0915 17:28:11.178128 22614 net.cpp:86] Creating Layer conv2
I0915 17:28:11.178131 22614 net.cpp:408] conv2 <- pool1
I0915 17:28:11.178135 22614 net.cpp:382] conv2 -> conv2
I0915 17:28:11.179646 22614 net.cpp:124] Setting up conv2
I0915 17:28:11.179661 22614 net.cpp:131] Top shape: 64 64 21 21 (1806336)
I0915 17:28:11.179666 22614 net.cpp:139] Memory required for data: 48000768
I0915 17:28:11.179672 22614 layer_factory.hpp:77] Creating layer relu2
I0915 17:28:11.179677 22614 net.cpp:86] Creating Layer relu2
I0915 17:28:11.179680 22614 net.cpp:408] relu2 <- conv2
I0915 17:28:11.179685 22614 net.cpp:369] relu2 -> conv2 (in-place)
I0915 17:28:11.179751 22614 net.cpp:124] Setting up relu2
I0915 17:28:11.179754 22614 net.cpp:131] Top shape: 64 64 21 21 (1806336)
I0915 17:28:11.179757 22614 net.cpp:139] Memory required for data: 55226112
I0915 17:28:11.179762 22614 layer_factory.hpp:77] Creating layer pool2
I0915 17:28:11.179766 22614 net.cpp:86] Creating Layer pool2
I0915 17:28:11.179776 22614 net.cpp:408] pool2 <- conv2
I0915 17:28:11.179788 22614 net.cpp:382] pool2 -> pool2
I0915 17:28:11.179808 22614 net.cpp:124] Setting up pool2
I0915 17:28:11.179811 22614 net.cpp:131] Top shape: 64 64 10 10 (409600)
I0915 17:28:11.179814 22614 net.cpp:139] Memory required for data: 56864512
I0915 17:28:11.179817 22614 layer_factory.hpp:77] Creating layer conv3
I0915 17:28:11.179824 22614 net.cpp:86] Creating Layer conv3
I0915 17:28:11.179827 22614 net.cpp:408] conv3 <- pool2
I0915 17:28:11.179831 22614 net.cpp:382] conv3 -> conv3
I0915 17:28:11.181313 22614 net.cpp:124] Setting up conv3
I0915 17:28:11.181325 22614 net.cpp:131] Top shape: 64 64 8 8 (262144)
I0915 17:28:11.181329 22614 net.cpp:139] Memory required for data: 57913088
I0915 17:28:11.181335 22614 layer_factory.hpp:77] Creating layer relu3
I0915 17:28:11.181340 22614 net.cpp:86] Creating Layer relu3
I0915 17:28:11.181344 22614 net.cpp:408] relu3 <- conv3
I0915 17:28:11.181349 22614 net.cpp:369] relu3 -> conv3 (in-place)
I0915 17:28:11.181398 22614 net.cpp:124] Setting up relu3
I0915 17:28:11.181401 22614 net.cpp:131] Top shape: 64 64 8 8 (262144)
I0915 17:28:11.181406 22614 net.cpp:139] Memory required for data: 58961664
I0915 17:28:11.181409 22614 layer_factory.hpp:77] Creating layer pool3
I0915 17:28:11.181413 22614 net.cpp:86] Creating Layer pool3
I0915 17:28:11.181416 22614 net.cpp:408] pool3 <- conv3
I0915 17:28:11.181419 22614 net.cpp:382] pool3 -> pool3
I0915 17:28:11.181438 22614 net.cpp:124] Setting up pool3
I0915 17:28:11.181442 22614 net.cpp:131] Top shape: 64 64 4 4 (65536)
I0915 17:28:11.181444 22614 net.cpp:139] Memory required for data: 59223808
I0915 17:28:11.181447 22614 layer_factory.hpp:77] Creating layer conv4
I0915 17:28:11.181453 22614 net.cpp:86] Creating Layer conv4
I0915 17:28:11.181457 22614 net.cpp:408] conv4 <- pool3
I0915 17:28:11.181459 22614 net.cpp:382] conv4 -> conv4
I0915 17:28:11.183903 22614 net.cpp:124] Setting up conv4
I0915 17:28:11.183915 22614 net.cpp:131] Top shape: 64 128 3 3 (73728)
I0915 17:28:11.183919 22614 net.cpp:139] Memory required for data: 59518720
I0915 17:28:11.183926 22614 layer_factory.hpp:77] Creating layer relu4
I0915 17:28:11.183931 22614 net.cpp:86] Creating Layer relu4
I0915 17:28:11.183935 22614 net.cpp:408] relu4 <- conv4
I0915 17:28:11.183939 22614 net.cpp:369] relu4 -> conv4 (in-place)
I0915 17:28:11.183986 22614 net.cpp:124] Setting up relu4
I0915 17:28:11.183990 22614 net.cpp:131] Top shape: 64 128 3 3 (73728)
I0915 17:28:11.183992 22614 net.cpp:139] Memory required for data: 59813632
I0915 17:28:11.183996 22614 layer_factory.hpp:77] Creating layer fc5
I0915 17:28:11.184002 22614 net.cpp:86] Creating Layer fc5
I0915 17:28:11.184005 22614 net.cpp:408] fc5 <- conv4
I0915 17:28:11.184010 22614 net.cpp:382] fc5 -> fc5
I0915 17:28:11.185220 22614 net.cpp:124] Setting up fc5
I0915 17:28:11.185227 22614 net.cpp:131] Top shape: 64 256 (16384)
I0915 17:28:11.185231 22614 net.cpp:139] Memory required for data: 59879168
I0915 17:28:11.185235 22614 layer_factory.hpp:77] Creating layer relu5
I0915 17:28:11.185240 22614 net.cpp:86] Creating Layer relu5
I0915 17:28:11.185242 22614 net.cpp:408] relu5 <- fc5
I0915 17:28:11.185246 22614 net.cpp:369] relu5 -> fc5 (in-place)
I0915 17:28:11.185286 22614 net.cpp:124] Setting up relu5
I0915 17:28:11.185288 22614 net.cpp:131] Top shape: 64 256 (16384)
I0915 17:28:11.185292 22614 net.cpp:139] Memory required for data: 59944704
I0915 17:28:11.185297 22614 layer_factory.hpp:77] Creating layer drop5
I0915 17:28:11.185307 22614 net.cpp:86] Creating Layer drop5
I0915 17:28:11.185309 22614 net.cpp:408] drop5 <- fc5
I0915 17:28:11.185312 22614 net.cpp:369] drop5 -> fc5 (in-place)
I0915 17:28:11.185330 22614 net.cpp:124] Setting up drop5
I0915 17:28:11.185333 22614 net.cpp:131] Top shape: 64 256 (16384)
I0915 17:28:11.185336 22614 net.cpp:139] Memory required for data: 60010240
I0915 17:28:11.185338 22614 layer_factory.hpp:77] Creating layer fc5_drop5_0_split
I0915 17:28:11.185348 22614 net.cpp:86] Creating Layer fc5_drop5_0_split
I0915 17:28:11.185358 22614 net.cpp:408] fc5_drop5_0_split <- fc5
I0915 17:28:11.185366 22614 net.cpp:382] fc5_drop5_0_split -> fc5_drop5_0_split_0
I0915 17:28:11.185371 22614 net.cpp:382] fc5_drop5_0_split -> fc5_drop5_0_split_1
I0915 17:28:11.185375 22614 net.cpp:382] fc5_drop5_0_split -> fc5_drop5_0_split_2
I0915 17:28:11.185402 22614 net.cpp:124] Setting up fc5_drop5_0_split
I0915 17:28:11.185405 22614 net.cpp:131] Top shape: 64 256 (16384)
I0915 17:28:11.185408 22614 net.cpp:131] Top shape: 64 256 (16384)
I0915 17:28:11.185410 22614 net.cpp:131] Top shape: 64 256 (16384)
I0915 17:28:11.185413 22614 net.cpp:139] Memory required for data: 60206848
I0915 17:28:11.185417 22614 layer_factory.hpp:77] Creating layer fc6-1
I0915 17:28:11.185423 22614 net.cpp:86] Creating Layer fc6-1
I0915 17:28:11.185426 22614 net.cpp:408] fc6-1 <- fc5_drop5_0_split_0
I0915 17:28:11.185431 22614 net.cpp:382] fc6-1 -> fc6-1
I0915 17:28:11.185480 22614 net.cpp:124] Setting up fc6-1
I0915 17:28:11.185483 22614 net.cpp:131] Top shape: 64 2 (128)
I0915 17:28:11.185487 22614 net.cpp:139] Memory required for data: 60207360
I0915 17:28:11.185492 22614 layer_factory.hpp:77] Creating layer cls_bridge
I0915 17:28:11.185540 22614 net.cpp:86] Creating Layer cls_bridge
I0915 17:28:11.185544 22614 net.cpp:408] cls_bridge <- fc6-1
I0915 17:28:11.185547 22614 net.cpp:408] cls_bridge <- label
I0915 17:28:11.185550 22614 net.cpp:382] cls_bridge -> fc6-1-valid
I0915 17:28:11.185555 22614 net.cpp:382] cls_bridge -> label-valid
I0915 17:28:11.185653 22614 net.cpp:124] Setting up cls_bridge
I0915 17:28:11.185658 22614 net.cpp:131] Top shape: 64 2 (128)
I0915 17:28:11.185662 22614 net.cpp:131] Top shape: 64 1 (64)
I0915 17:28:11.185664 22614 net.cpp:139] Memory required for data: 60208128
I0915 17:28:11.185667 22614 layer_factory.hpp:77] Creating layer ClassifyLoss
I0915 17:28:11.185674 22614 net.cpp:86] Creating Layer ClassifyLoss
I0915 17:28:11.185678 22614 net.cpp:408] ClassifyLoss <- fc6-1-valid
I0915 17:28:11.185680 22614 net.cpp:408] ClassifyLoss <- label-valid
I0915 17:28:11.185683 22614 net.cpp:382] ClassifyLoss -> ClassifyLoss
I0915 17:28:11.185690 22614 layer_factory.hpp:77] Creating layer ClassifyLoss
I0915 17:28:11.185981 22614 net.cpp:124] Setting up ClassifyLoss
I0915 17:28:11.185988 22614 net.cpp:131] Top shape: (1)
I0915 17:28:11.185992 22614 net.cpp:134]     with loss weight 1
I0915 17:28:11.186007 22614 net.cpp:139] Memory required for data: 60208132
I0915 17:28:11.186010 22614 layer_factory.hpp:77] Creating layer fc6-2
I0915 17:28:11.186017 22614 net.cpp:86] Creating Layer fc6-2
I0915 17:28:11.186019 22614 net.cpp:408] fc6-2 <- fc5_drop5_0_split_1
I0915 17:28:11.186024 22614 net.cpp:382] fc6-2 -> fc6-2
I0915 17:28:11.186084 22614 net.cpp:124] Setting up fc6-2
I0915 17:28:11.186086 22614 net.cpp:131] Top shape: 64 4 (256)
I0915 17:28:11.186089 22614 net.cpp:139] Memory required for data: 60209156
I0915 17:28:11.186095 22614 layer_factory.hpp:77] Creating layer RegressionLoss
I0915 17:28:11.186122 22614 net.cpp:86] Creating Layer RegressionLoss
I0915 17:28:11.186125 22614 net.cpp:408] RegressionLoss <- fc6-2
I0915 17:28:11.186128 22614 net.cpp:408] RegressionLoss <- roi
I0915 17:28:11.186132 22614 net.cpp:382] RegressionLoss -> RegressionLoss
I0915 17:28:11.186221 22614 net.cpp:124] Setting up RegressionLoss
I0915 17:28:11.186226 22614 net.cpp:131] Top shape: 1 (1)
I0915 17:28:11.186229 22614 net.cpp:134]     with loss weight 0.5
I0915 17:28:11.186234 22614 net.cpp:139] Memory required for data: 60209160
I0915 17:28:11.186237 22614 layer_factory.hpp:77] Creating layer fc6-3
I0915 17:28:11.186242 22614 net.cpp:86] Creating Layer fc6-3
I0915 17:28:11.186245 22614 net.cpp:408] fc6-3 <- fc5_drop5_0_split_2
I0915 17:28:11.186249 22614 net.cpp:382] fc6-3 -> fc6-3
I0915 17:28:11.186312 22614 net.cpp:124] Setting up fc6-3
I0915 17:28:11.186316 22614 net.cpp:131] Top shape: 64 10 (640)
I0915 17:28:11.186318 22614 net.cpp:139] Memory required for data: 60211720
I0915 17:28:11.186322 22614 layer_factory.hpp:77] Creating layer LandmarkLoss
I0915 17:28:11.186342 22614 net.cpp:86] Creating Layer LandmarkLoss
I0915 17:28:11.186349 22614 net.cpp:408] LandmarkLoss <- fc6-3
I0915 17:28:11.186352 22614 net.cpp:408] LandmarkLoss <- pts
I0915 17:28:11.186357 22614 net.cpp:382] LandmarkLoss -> LandmarkLoss
I0915 17:28:11.186408 22614 net.cpp:124] Setting up LandmarkLoss
I0915 17:28:11.186414 22614 net.cpp:131] Top shape: 1 (1)
I0915 17:28:11.186416 22614 net.cpp:134]     with loss weight 1
I0915 17:28:11.186420 22614 net.cpp:139] Memory required for data: 60211724
I0915 17:28:11.186424 22614 net.cpp:200] LandmarkLoss needs backward computation.
I0915 17:28:11.186429 22614 net.cpp:200] fc6-3 needs backward computation.
I0915 17:28:11.186432 22614 net.cpp:200] RegressionLoss needs backward computation.
I0915 17:28:11.186435 22614 net.cpp:200] fc6-2 needs backward computation.
…
