…
weights: "24net-only-cls.caffemodel"
I0913 22:58:44.277639 23896 solver.cpp:102] Creating training net from net file: train24.prototxt
I0913 22:58:44.278342 23896 net.cpp:296] The NetState phase (0) differed from the phase (1) specified by a rule in layer cls_acc
I0913 22:58:44.278370 23896 net.cpp:53] Initializing net from parameters: 
name: "face_24c"
state {
  phase: TRAIN
  level: 0
  stage: ""
}
layer {
  name: "PythonLayer"
  type: "Python"
  top: "data"
  top: "label"
  top: "roi"
  top: "pts"
  python_param {
    module: "pythonLayer"
    layer: "Data_Layer_train"
  }
}
layer {
  name: "conv1"
  type: "Convolution"
  bottom: "data"
  top: "conv1"
  param {
    lr_mult: 1
  }
  param {
    lr_mult: 2
  }
  convolution_param {
    num_output: 28
    kernel_size: 3
    weight_filler {
      type: "gaussian"
      std: 0.0001
    }
    bias_filler {
      type: "constant"
    }
  }
}
layer {
  name: "relu1"
  type: "PReLU"
  bottom: "conv1"
  top: "conv1"
}
layer {
  name: "pool1"
  type: "Pooling"
  bottom: "conv1"
  top: "pool1"
  pooling_param {
    pool: MAX
    kernel_size: 3
    stride: 2
  }
}
layer {
  name: "conv2"
  type: "Convolution"
  bottom: "pool1"
  top: "conv2"
  param {
    lr_mult: 1
  }
  param {
    lr_mult: 2
  }
  convolution_param {
    num_output: 48
    kernel_size: 3
    weight_filler {
      type: "gaussian"
      std: 0.0001
    }
    bias_filler {
      type: "constant"
    }
  }
}
layer {
  name: "relu2"
  type: "PReLU"
  bottom: "conv2"
  top: "conv2"
}
layer {
  name: "pool2"
  type: "Pooling"
  bottom: "conv2"
  top: "pool2"
  pooling_param {
    pool: MAX
    kernel_size: 3
    stride: 2
  }
}
layer {
  name: "conv3"
  type: "Convolution"
  bottom: "pool2"
  top: "conv3"
  param {
    lr_mult: 1
    decay_mult: 1
  }
  param {
    lr_mult: 2
    decay_mult: 0
  }
  convolution_param {
    num_output: 64
    kernel_size: 2
    stride: 1
    weight_filler {
      type: "xavier"
    }
    bias_filler {
      type: "constant"
      value: 0
    }
  }
}
layer {
  name: "relu3"
  type: "PReLU"
  bottom: "conv3"
  top: "conv3"
}
layer {
  name: "fc4"
  type: "InnerProduct"
  bottom: "conv3"
  top: "fc4"
  param {
    lr_mult: 1
    decay_mult: 1
  }
  param {
    lr_mult: 2
    decay_mult: 0
  }
  inner_product_param {
    num_output: 128
    weight_filler {
      type: "xavier"
    }
    bias_filler {
      type: "constant"
      value: 0
    }
  }
}
layer {
  name: "relu4"
  type: "PReLU"
  bottom: "fc4"
  top: "fc4"
}
layer {
  name: "fc5-1"
  type: "InnerProduct"
  bottom: "fc4"
  top: "fc5-1"
  param {
    lr_mult: 1
    decay_mult: 1
  }
  param {
    lr_mult: 2
    decay_mult: 0
  }
  inner_product_param {
    num_output: 2
    weight_filler {
      type: "xavier"
    }
    bias_filler {
      type: "constant"
      value: 0
    }
  }
}
layer {
  name: "cls_bridge"
  type: "Python"
  bottom: "fc5-1"
  bottom: "label"
  top: "fc5-1-valid"
  top: "label-valid"
  python_param {
    module: "pythonLayer"
    layer: "cls_Layer"
  }
}
layer {
  name: "cls_loss"
  type: "SoftmaxWithLoss"
  bottom: "fc5-1-valid"
  bottom: "label-valid"
  top: "cls_loss"
  loss_weight: 1
  propagate_down: true
  propagate_down: false
}
layer {
  name: "cls_acc"
  type: "Accuracy"
  bottom: "fc5-1-valid"
  bottom: "label-valid"
  top: "cls_acc"
  include {
    phase: TRAIN
  }
}
layer {
  name: "fc5-2"
  type: "InnerProduct"
  bottom: "fc4"
  top: "fc5-2"
  param {
    lr_mult: 1
    decay_mult: 1
  }
  param {
    lr_mult: 2
    decay_mult: 0
  }
  inner_product_param {
    num_output: 4
    weight_filler {
      type: "xavier"
    }
    bias_filler {
      type: "constant"
      value: 0
    }
  }
}
layer {
  name: "roi_loss"
  type: "Python"
  bottom: "fc5-2"
  bottom: "roi"
  top: "roi_loss"
  loss_weight: 0.5
  python_param {
    module: "pythonLayer"
    layer: "regression_Layer"
  }
}
layer {
  name: "fc5-3"
  type: "InnerProduct"
  bottom: "fc4"
  top: "fc5-3"
  param {
    lr_mult: 1
    decay_mult: 1
  }
  param {
    lr_mult: 2
    decay_mult: 0
  }
  inner_product_param {
    num_output: 10
    weight_filler {
      type: "xavier"
    }
    bias_filler {
      type: "constant"
      value: 0
    }
  }
}
layer {
  name: "pts_loss"
  type: "Python"
  bottom: "fc5-3"
  bottom: "pts"
  top: "pts_loss"
  loss_weight: 0.5
  python_param {
    module: "pythonLayer"
    layer: "regression_Layer"
  }
}
I0913 22:58:44.278787 23896 layer_factory.hpp:77] Creating layer PythonLayer
I0913 22:58:44.783610 23896 net.cpp:86] Creating Layer PythonLayer
I0913 22:58:44.783650 23896 net.cpp:382] PythonLayer -> data
I0913 22:58:44.783671 23896 net.cpp:382] PythonLayer -> label
I0913 22:58:44.783680 23896 net.cpp:382] PythonLayer -> roi
I0913 22:58:44.783686 23896 net.cpp:382] PythonLayer -> pts
I0913 22:59:20.595551 23896 net.cpp:124] Setting up PythonLayer
I0913 22:59:20.596632 23896 net.cpp:131] Top shape: 64 3 24 24 (110592)
I0913 22:59:20.596668 23896 net.cpp:131] Top shape: 64 1 (64)
I0913 22:59:20.596681 23896 net.cpp:131] Top shape: 64 4 (256)
I0913 22:59:20.596693 23896 net.cpp:131] Top shape: 64 10 (640)
I0913 22:59:20.596704 23896 net.cpp:139] Memory required for data: 446208
I0913 22:59:20.597939 23896 layer_factory.hpp:77] Creating layer conv1
I0913 22:59:20.599797 23896 net.cpp:86] Creating Layer conv1
I0913 22:59:20.599820 23896 net.cpp:408] conv1 <- data
I0913 22:59:20.600203 23896 net.cpp:382] conv1 -> conv1
I0913 22:59:22.768664 23896 net.cpp:124] Setting up conv1
I0913 22:59:22.768741 23896 net.cpp:131] Top shape: 64 28 22 22 (867328)
I0913 22:59:22.769062 23896 net.cpp:139] Memory required for data: 3915520
I0913 22:59:22.769436 23896 layer_factory.hpp:77] Creating layer relu1
I0913 22:59:22.769469 23896 net.cpp:86] Creating Layer relu1
I0913 22:59:22.769484 23896 net.cpp:408] relu1 <- conv1
I0913 22:59:22.769502 23896 net.cpp:369] relu1 -> conv1 (in-place)
I0913 22:59:22.770087 23896 net.cpp:124] Setting up relu1
I0913 22:59:22.770107 23896 net.cpp:131] Top shape: 64 28 22 22 (867328)
I0913 22:59:22.770121 23896 net.cpp:139] Memory required for data: 7384832
I0913 22:59:22.770138 23896 layer_factory.hpp:77] Creating layer pool1
I0913 22:59:22.770159 23896 net.cpp:86] Creating Layer pool1
I0913 22:59:22.770171 23896 net.cpp:408] pool1 <- conv1
I0913 22:59:22.770205 23896 net.cpp:382] pool1 -> pool1
I0913 22:59:22.770682 23896 net.cpp:124] Setting up pool1
I0913 22:59:22.770700 23896 net.cpp:131] Top shape: 64 28 11 11 (216832)
I0913 22:59:22.770712 23896 net.cpp:139] Memory required for data: 8252160
I0913 22:59:22.770722 23896 layer_factory.hpp:77] Creating layer conv2
I0913 22:59:22.770753 23896 net.cpp:86] Creating Layer conv2
I0913 22:59:22.770766 23896 net.cpp:408] conv2 <- pool1
I0913 22:59:22.770781 23896 net.cpp:382] conv2 -> conv2
I0913 22:59:22.776582 23896 net.cpp:124] Setting up conv2
I0913 22:59:22.776628 23896 net.cpp:131] Top shape: 64 48 9 9 (248832)
I0913 22:59:22.776643 23896 net.cpp:139] Memory required for data: 9247488
I0913 22:59:22.776664 23896 layer_factory.hpp:77] Creating layer relu2
I0913 22:59:22.776684 23896 net.cpp:86] Creating Layer relu2
I0913 22:59:22.776695 23896 net.cpp:408] relu2 <- conv2
I0913 22:59:22.776710 23896 net.cpp:369] relu2 -> conv2 (in-place)
I0913 22:59:22.776887 23896 net.cpp:124] Setting up relu2
I0913 22:59:22.776902 23896 net.cpp:131] Top shape: 64 48 9 9 (248832)
I0913 22:59:22.776916 23896 net.cpp:139] Memory required for data: 10242816
I0913 22:59:22.776931 23896 layer_factory.hpp:77] Creating layer pool2
I0913 22:59:22.776947 23896 net.cpp:86] Creating Layer pool2
I0913 22:59:22.776957 23896 net.cpp:408] pool2 <- conv2
I0913 22:59:22.776998 23896 net.cpp:382] pool2 -> pool2
I0913 22:59:22.777089 23896 net.cpp:124] Setting up pool2
I0913 22:59:22.777104 23896 net.cpp:131] Top shape: 64 48 4 4 (49152)
I0913 22:59:22.777117 23896 net.cpp:139] Memory required for data: 10439424
I0913 22:59:22.777125 23896 layer_factory.hpp:77] Creating layer conv3
I0913 22:59:22.777148 23896 net.cpp:86] Creating Layer conv3
I0913 22:59:22.777160 23896 net.cpp:408] conv3 <- pool2
I0913 22:59:22.777174 23896 net.cpp:382] conv3 -> conv3
I0913 22:59:22.782727 23896 net.cpp:124] Setting up conv3
I0913 22:59:22.782764 23896 net.cpp:131] Top shape: 64 64 3 3 (36864)
I0913 22:59:22.782779 23896 net.cpp:139] Memory required for data: 10586880
I0913 22:59:22.782794 23896 layer_factory.hpp:77] Creating layer relu3
I0913 22:59:22.782815 23896 net.cpp:86] Creating Layer relu3
I0913 22:59:22.782827 23896 net.cpp:408] relu3 <- conv3
I0913 22:59:22.782840 23896 net.cpp:369] relu3 -> conv3 (in-place)
I0913 22:59:22.782999 23896 net.cpp:124] Setting up relu3
I0913 22:59:22.783011 23896 net.cpp:131] Top shape: 64 64 3 3 (36864)
I0913 22:59:22.783022 23896 net.cpp:139] Memory required for data: 10734336
I0913 22:59:22.783037 23896 layer_factory.hpp:77] Creating layer fc4
I0913 22:59:22.783066 23896 net.cpp:86] Creating Layer fc4
I0913 22:59:22.783077 23896 net.cpp:408] fc4 <- conv3
I0913 22:59:22.783111 23896 net.cpp:382] fc4 -> fc4
I0913 22:59:22.784075 23896 net.cpp:124] Setting up fc4
I0913 22:59:22.784090 23896 net.cpp:131] Top shape: 64 128 (8192)
I0913 22:59:22.784099 23896 net.cpp:139] Memory required for data: 10767104
I0913 22:59:22.784111 23896 layer_factory.hpp:77] Creating layer relu4
I0913 22:59:22.784129 23896 net.cpp:86] Creating Layer relu4
I0913 22:59:22.784142 23896 net.cpp:408] relu4 <- fc4
I0913 22:59:22.784154 23896 net.cpp:369] relu4 -> fc4 (in-place)
I0913 22:59:22.784289 23896 net.cpp:124] Setting up relu4
I0913 22:59:22.784302 23896 net.cpp:131] Top shape: 64 128 (8192)
I0913 22:59:22.784312 23896 net.cpp:139] Memory required for data: 10799872
I0913 22:59:22.784322 23896 layer_factory.hpp:77] Creating layer fc4_relu4_0_split
I0913 22:59:22.784335 23896 net.cpp:86] Creating Layer fc4_relu4_0_split
I0913 22:59:22.784344 23896 net.cpp:408] fc4_relu4_0_split <- fc4
I0913 22:59:22.784355 23896 net.cpp:382] fc4_relu4_0_split -> fc4_relu4_0_split_0
I0913 22:59:22.784369 23896 net.cpp:382] fc4_relu4_0_split -> fc4_relu4_0_split_1
I0913 22:59:22.784386 23896 net.cpp:382] fc4_relu4_0_split -> fc4_relu4_0_split_2
I0913 22:59:22.784462 23896 net.cpp:124] Setting up fc4_relu4_0_split
I0913 22:59:22.784474 23896 net.cpp:131] Top shape: 64 128 (8192)
I0913 22:59:22.784484 23896 net.cpp:131] Top shape: 64 128 (8192)
I0913 22:59:22.784492 23896 net.cpp:131] Top shape: 64 128 (8192)
I0913 22:59:22.784502 23896 net.cpp:139] Memory required for data: 10898176
I0913 22:59:22.784509 23896 layer_factory.hpp:77] Creating layer fc5-1
I0913 22:59:22.784523 23896 net.cpp:86] Creating Layer fc5-1
I0913 22:59:22.784534 23896 net.cpp:408] fc5-1 <- fc4_relu4_0_split_0
I0913 22:59:22.784546 23896 net.cpp:382] fc5-1 -> fc5-1
I0913 22:59:22.784689 23896 net.cpp:124] Setting up fc5-1
I0913 22:59:22.784703 23896 net.cpp:131] Top shape: 64 2 (128)
I0913 22:59:22.784711 23896 net.cpp:139] Memory required for data: 10898688
I0913 22:59:22.784724 23896 layer_factory.hpp:77] Creating layer cls_bridge
I0913 22:59:22.786322 23896 net.cpp:86] Creating Layer cls_bridge
I0913 22:59:22.786345 23896 net.cpp:408] cls_bridge <- fc5-1
I0913 22:59:22.786356 23896 net.cpp:408] cls_bridge <- label
I0913 22:59:22.786367 23896 net.cpp:382] cls_bridge -> fc5-1-valid
I0913 22:59:22.786386 23896 net.cpp:382] cls_bridge -> label-valid
I0913 22:59:22.789923 23896 net.cpp:124] Setting up cls_bridge
I0913 22:59:22.789957 23896 net.cpp:131] Top shape: 64 2 (128)
I0913 22:59:22.789970 23896 net.cpp:131] Top shape: 64 1 (64)
I0913 22:59:22.789980 23896 net.cpp:139] Memory required for data: 10899456
I0913 22:59:22.789990 23896 layer_factory.hpp:77] Creating layer fc5-1-valid_cls_bridge_0_split
I0913 22:59:22.790017 23896 net.cpp:86] Creating Layer fc5-1-valid_cls_bridge_0_split
I0913 22:59:22.790030 23896 net.cpp:408] fc5-1-valid_cls_bridge_0_split <- fc5-1-valid
I0913 22:59:22.790045 23896 net.cpp:382] fc5-1-valid_cls_bridge_0_split -> fc5-1-valid_cls_bridge_0_split_0
I0913 22:59:22.790064 23896 net.cpp:382] fc5-1-valid_cls_bridge_0_split -> fc5-1-valid_cls_bridge_0_split_1
I0913 22:59:22.790151 23896 net.cpp:124] Setting up fc5-1-valid_cls_bridge_0_split
I0913 22:59:22.790164 23896 net.cpp:131] Top shape: 64 2 (128)
I0913 22:59:22.790175 23896 net.cpp:131] Top shape: 64 2 (128)
I0913 22:59:22.790184 23896 net.cpp:139] Memory required for data: 10900480
I0913 22:59:22.790194 23896 layer_factory.hpp:77] Creating layer label-valid_cls_bridge_1_split
I0913 22:59:22.790206 23896 net.cpp:86] Creating Layer label-valid_cls_bridge_1_split
I0913 22:59:22.790215 23896 net.cpp:408] label-valid_cls_bridge_1_split <- label-valid
I0913 22:59:22.790230 23896 net.cpp:382] label-valid_cls_bridge_1_split -> label-valid_cls_bridge_1_split_0
I0913 22:59:22.790247 23896 net.cpp:382] label-valid_cls_bridge_1_split -> label-valid_cls_bridge_1_split_1
I0913 22:59:22.790302 23896 net.cpp:124] Setting up label-valid_cls_bridge_1_split
I0913 22:59:22.790315 23896 net.cpp:131] Top shape: 64 1 (64)
I0913 22:59:22.790325 23896 net.cpp:131] Top shape: 64 1 (64)
I0913 22:59:22.790352 23896 net.cpp:139] Memory required for data: 10900992
I0913 22:59:22.790364 23896 layer_factory.hpp:77] Creating layer cls_loss
I0913 22:59:22.790783 23896 net.cpp:86] Creating Layer cls_loss
I0913 22:59:22.790800 23896 net.cpp:408] cls_loss <- fc5-1-valid_cls_bridge_0_split_0
I0913 22:59:22.790812 23896 net.cpp:408] cls_loss <- label-valid_cls_bridge_1_split_0
I0913 22:59:22.790823 23896 net.cpp:382] cls_loss -> cls_loss
…
