…
weights: "24net-only-cls.caffemodel"
I0912 20:43:06.362490 15447 solver.cpp:102] Creating training net from net file: train24.prototxt
I0912 20:43:06.364652 15447 net.cpp:296] The NetState phase (0) differed from the phase (1) specified by a rule in layer cls_acc
I0912 20:43:06.364665 15447 net.cpp:53] Initializing net from parameters: 
name: "face_24c"
state {
  phase: TRAIN
  level: 0
  stage: ""
}
layer {
  name: "PythonLayer"
  type: "Python"
  top: "data"
  top: "label"
  top: "roi"
  top: "pts"
  python_param {
    module: "pythonLayer"
    layer: "Data_Layer_train"
  }
}
layer {
  name: "conv1"
  type: "Convolution"
  bottom: "data"
  top: "conv1"
  param {
    lr_mult: 1
  }
  param {
    lr_mult: 2
  }
  convolution_param {
    num_output: 28
    kernel_size: 3
    weight_filler {
      type: "gaussian"
      std: 0.0001
    }
    bias_filler {
      type: "constant"
    }
  }
}
layer {
  name: "relu1"
  type: "PReLU"
  bottom: "conv1"
  top: "conv1"
}
layer {
  name: "pool1"
  type: "Pooling"
  bottom: "conv1"
  top: "pool1"
  pooling_param {
    pool: MAX
    kernel_size: 3
    stride: 2
  }
}
layer {
  name: "conv2"
  type: "Convolution"
  bottom: "pool1"
  top: "conv2"
  param {
    lr_mult: 1
  }
  param {
    lr_mult: 2
  }
  convolution_param {
    num_output: 48
    kernel_size: 3
    weight_filler {
      type: "gaussian"
      std: 0.0001
    }
    bias_filler {
      type: "constant"
    }
  }
}
layer {
  name: "relu2"
  type: "PReLU"
  bottom: "conv2"
  top: "conv2"
}
layer {
  name: "pool2"
  type: "Pooling"
  bottom: "conv2"
  top: "pool2"
  pooling_param {
    pool: MAX
    kernel_size: 3
    stride: 2
  }
}
layer {
  name: "conv3"
  type: "Convolution"
  bottom: "pool2"
  top: "conv3"
  param {
    lr_mult: 1
    decay_mult: 1
  }
  param {
    lr_mult: 2
    decay_mult: 0
  }
  convolution_param {
    num_output: 64
    kernel_size: 2
    stride: 1
    weight_filler {
      type: "xavier"
    }
    bias_filler {
      type: "constant"
      value: 0
    }
  }
}
layer {
  name: "relu3"
  type: "PReLU"
  bottom: "conv3"
  top: "conv3"
}
layer {
  name: "fc4"
  type: "InnerProduct"
  bottom: "conv3"
  top: "fc4"
  param {
    lr_mult: 1
    decay_mult: 1
  }
  param {
    lr_mult: 2
    decay_mult: 0
  }
  inner_product_param {
    num_output: 128
    weight_filler {
      type: "xavier"
    }
    bias_filler {
      type: "constant"
      value: 0
    }
  }
}
layer {
  name: "relu4"
  type: "PReLU"
  bottom: "fc4"
  top: "fc4"
}
layer {
  name: "fc5-1"
  type: "InnerProduct"
  bottom: "fc4"
  top: "fc5-1"
  param {
    lr_mult: 1
    decay_mult: 1
  }
  param {
    lr_mult: 2
    decay_mult: 0
  }
  inner_product_param {
    num_output: 2
    weight_filler {
      type: "xavier"
    }
    bias_filler {
      type: "constant"
      value: 0
    }
  }
}
layer {
  name: "cls_bridge"
  type: "Python"
  bottom: "fc5-1"
  bottom: "label"
  top: "fc5-1-valid"
  top: "label-valid"
  python_param {
    module: "pythonLayer"
    layer: "cls_Layer"
  }
}
layer {
  name: "cls_loss"
  type: "SoftmaxWithLoss"
  bottom: "fc5-1-valid"
  bottom: "label-valid"
  top: "cls_loss"
  loss_weight: 1
  propagate_down: true
  propagate_down: false
}
layer {
  name: "cls_acc"
  type: "Accuracy"
  bottom: "fc5-1-valid"
  bottom: "label-valid"
  top: "cls_acc"
  include {
    phase: TRAIN
  }
}
layer {
  name: "fc5-2"
  type: "InnerProduct"
  bottom: "fc4"
  top: "fc5-2"
  param {
    lr_mult: 1
    decay_mult: 1
  }
  param {
    lr_mult: 2
    decay_mult: 0
  }
  inner_product_param {
    num_output: 4
    weight_filler {
      type: "xavier"
    }
    bias_filler {
      type: "constant"
      value: 0
    }
  }
}
layer {
  name: "roi_loss"
  type: "Python"
  bottom: "fc5-2"
  bottom: "roi"
  top: "roi_loss"
  loss_weight: 0.5
  python_param {
    module: "pythonLayer"
    layer: "regression_Layer"
  }
}
layer {
  name: "fc5-3"
  type: "InnerProduct"
  bottom: "fc4"
  top: "fc5-3"
  param {
    lr_mult: 1
    decay_mult: 1
  }
  param {
    lr_mult: 2
    decay_mult: 0
  }
  inner_product_param {
    num_output: 10
    weight_filler {
      type: "xavier"
    }
    bias_filler {
      type: "constant"
      value: 0
    }
  }
}
layer {
  name: "pts_loss"
  type: "Python"
  bottom: "fc5-3"
  bottom: "pts"
  top: "pts_loss"
  loss_weight: 0.5
  python_param {
    module: "pythonLayer"
    layer: "regression_Layer"
  }
}
I0912 20:43:06.364810 15447 layer_factory.hpp:77] Creating layer PythonLayer
I0912 20:43:06.834239 15447 net.cpp:86] Creating Layer PythonLayer
I0912 20:43:06.834280 15447 net.cpp:382] PythonLayer -> data
I0912 20:43:06.834300 15447 net.cpp:382] PythonLayer -> label
I0912 20:43:06.834309 15447 net.cpp:382] PythonLayer -> roi
I0912 20:43:06.834316 15447 net.cpp:382] PythonLayer -> pts
I0912 20:43:44.119177 15447 net.cpp:124] Setting up PythonLayer
I0912 20:43:44.120705 15447 net.cpp:131] Top shape: 64 3 24 24 (110592)
I0912 20:43:44.120733 15447 net.cpp:131] Top shape: 64 1 (64)
I0912 20:43:44.120740 15447 net.cpp:131] Top shape: 64 4 (256)
I0912 20:43:44.120748 15447 net.cpp:131] Top shape: 64 10 (640)
I0912 20:43:44.120755 15447 net.cpp:139] Memory required for data: 446208
I0912 20:43:44.122216 15447 layer_factory.hpp:77] Creating layer conv1
I0912 20:43:44.122437 15447 net.cpp:86] Creating Layer conv1
I0912 20:43:44.122452 15447 net.cpp:408] conv1 <- data
I0912 20:43:44.122787 15447 net.cpp:382] conv1 -> conv1
I0912 20:43:46.178891 15447 net.cpp:124] Setting up conv1
I0912 20:43:46.178943 15447 net.cpp:131] Top shape: 64 28 22 22 (867328)
I0912 20:43:46.178962 15447 net.cpp:139] Memory required for data: 3915520
I0912 20:43:46.179024 15447 layer_factory.hpp:77] Creating layer relu1
I0912 20:43:46.179045 15447 net.cpp:86] Creating Layer relu1
I0912 20:43:46.179057 15447 net.cpp:408] relu1 <- conv1
I0912 20:43:46.179072 15447 net.cpp:369] relu1 -> conv1 (in-place)
I0912 20:43:46.179292 15447 net.cpp:124] Setting up relu1
I0912 20:43:46.179303 15447 net.cpp:131] Top shape: 64 28 22 22 (867328)
I0912 20:43:46.179316 15447 net.cpp:139] Memory required for data: 7384832
I0912 20:43:46.179329 15447 layer_factory.hpp:77] Creating layer pool1
I0912 20:43:46.179347 15447 net.cpp:86] Creating Layer pool1
I0912 20:43:46.179358 15447 net.cpp:408] pool1 <- conv1
I0912 20:43:46.179370 15447 net.cpp:382] pool1 -> pool1
I0912 20:43:46.179883 15447 net.cpp:124] Setting up pool1
I0912 20:43:46.179896 15447 net.cpp:131] Top shape: 64 28 11 11 (216832)
I0912 20:43:46.179906 15447 net.cpp:139] Memory required for data: 8252160
I0912 20:43:46.179914 15447 layer_factory.hpp:77] Creating layer conv2
I0912 20:43:46.179932 15447 net.cpp:86] Creating Layer conv2
I0912 20:43:46.179940 15447 net.cpp:408] conv2 <- pool1
I0912 20:43:46.179951 15447 net.cpp:382] conv2 -> conv2
I0912 20:43:46.183501 15447 net.cpp:124] Setting up conv2
I0912 20:43:46.183528 15447 net.cpp:131] Top shape: 64 48 9 9 (248832)
I0912 20:43:46.183542 15447 net.cpp:139] Memory required for data: 9247488
I0912 20:43:46.183557 15447 layer_factory.hpp:77] Creating layer relu2
I0912 20:43:46.183573 15447 net.cpp:86] Creating Layer relu2
I0912 20:43:46.183583 15447 net.cpp:408] relu2 <- conv2
I0912 20:43:46.183593 15447 net.cpp:369] relu2 -> conv2 (in-place)
I0912 20:43:46.183737 15447 net.cpp:124] Setting up relu2
I0912 20:43:46.183745 15447 net.cpp:131] Top shape: 64 48 9 9 (248832)
I0912 20:43:46.183755 15447 net.cpp:139] Memory required for data: 10242816
I0912 20:43:46.183768 15447 layer_factory.hpp:77] Creating layer pool2
I0912 20:43:46.183779 15447 net.cpp:86] Creating Layer pool2
I0912 20:43:46.183786 15447 net.cpp:408] pool2 <- conv2
I0912 20:43:46.183809 15447 net.cpp:382] pool2 -> pool2
I0912 20:43:46.183857 15447 net.cpp:124] Setting up pool2
I0912 20:43:46.183866 15447 net.cpp:131] Top shape: 64 48 4 4 (49152)
I0912 20:43:46.183876 15447 net.cpp:139] Memory required for data: 10439424
I0912 20:43:46.183882 15447 layer_factory.hpp:77] Creating layer conv3
I0912 20:43:46.183897 15447 net.cpp:86] Creating Layer conv3
I0912 20:43:46.183904 15447 net.cpp:408] conv3 <- pool2
I0912 20:43:46.183913 15447 net.cpp:382] conv3 -> conv3
I0912 20:43:46.188242 15447 net.cpp:124] Setting up conv3
I0912 20:43:46.188274 15447 net.cpp:131] Top shape: 64 64 3 3 (36864)
I0912 20:43:46.188289 15447 net.cpp:139] Memory required for data: 10586880
I0912 20:43:46.188307 15447 layer_factory.hpp:77] Creating layer relu3
I0912 20:43:46.188321 15447 net.cpp:86] Creating Layer relu3
I0912 20:43:46.188331 15447 net.cpp:408] relu3 <- conv3
I0912 20:43:46.188344 15447 net.cpp:369] relu3 -> conv3 (in-place)
I0912 20:43:46.188513 15447 net.cpp:124] Setting up relu3
I0912 20:43:46.188522 15447 net.cpp:131] Top shape: 64 64 3 3 (36864)
I0912 20:43:46.188534 15447 net.cpp:139] Memory required for data: 10734336
I0912 20:43:46.188549 15447 layer_factory.hpp:77] Creating layer fc4
I0912 20:43:46.188568 15447 net.cpp:86] Creating Layer fc4
I0912 20:43:46.188578 15447 net.cpp:408] fc4 <- conv3
I0912 20:43:46.188612 15447 net.cpp:382] fc4 -> fc4
I0912 20:43:46.189574 15447 net.cpp:124] Setting up fc4
I0912 20:43:46.189587 15447 net.cpp:131] Top shape: 64 128 (8192)
I0912 20:43:46.189596 15447 net.cpp:139] Memory required for data: 10767104
I0912 20:43:46.189610 15447 layer_factory.hpp:77] Creating layer relu4
I0912 20:43:46.189620 15447 net.cpp:86] Creating Layer relu4
I0912 20:43:46.189627 15447 net.cpp:408] relu4 <- fc4
I0912 20:43:46.189636 15447 net.cpp:369] relu4 -> fc4 (in-place)
I0912 20:43:46.189738 15447 net.cpp:124] Setting up relu4
I0912 20:43:46.189745 15447 net.cpp:131] Top shape: 64 128 (8192)
I0912 20:43:46.189754 15447 net.cpp:139] Memory required for data: 10799872
I0912 20:43:46.189761 15447 layer_factory.hpp:77] Creating layer fc4_relu4_0_split
I0912 20:43:46.189777 15447 net.cpp:86] Creating Layer fc4_relu4_0_split
I0912 20:43:46.189785 15447 net.cpp:408] fc4_relu4_0_split <- fc4
I0912 20:43:46.189795 15447 net.cpp:382] fc4_relu4_0_split -> fc4_relu4_0_split_0
I0912 20:43:46.189806 15447 net.cpp:382] fc4_relu4_0_split -> fc4_relu4_0_split_1
I0912 20:43:46.189818 15447 net.cpp:382] fc4_relu4_0_split -> fc4_relu4_0_split_2
I0912 20:43:46.189888 15447 net.cpp:124] Setting up fc4_relu4_0_split
I0912 20:43:46.189895 15447 net.cpp:131] Top shape: 64 128 (8192)
I0912 20:43:46.189903 15447 net.cpp:131] Top shape: 64 128 (8192)
I0912 20:43:46.189910 15447 net.cpp:131] Top shape: 64 128 (8192)
I0912 20:43:46.189918 15447 net.cpp:139] Memory required for data: 10898176
I0912 20:43:46.189925 15447 layer_factory.hpp:77] Creating layer fc5-1
I0912 20:43:46.189935 15447 net.cpp:86] Creating Layer fc5-1
I0912 20:43:46.189942 15447 net.cpp:408] fc5-1 <- fc4_relu4_0_split_0
I0912 20:43:46.189954 15447 net.cpp:382] fc5-1 -> fc5-1
I0912 20:43:46.190083 15447 net.cpp:124] Setting up fc5-1
I0912 20:43:46.190090 15447 net.cpp:131] Top shape: 64 2 (128)
I0912 20:43:46.190099 15447 net.cpp:139] Memory required for data: 10898688
I0912 20:43:46.190110 15447 layer_factory.hpp:77] Creating layer cls_bridge
I0912 20:43:46.190871 15447 net.cpp:86] Creating Layer cls_bridge
I0912 20:43:46.190889 15447 net.cpp:408] cls_bridge <- fc5-1
I0912 20:43:46.190901 15447 net.cpp:408] cls_bridge <- label
I0912 20:43:46.190913 15447 net.cpp:382] cls_bridge -> fc5-1-valid
I0912 20:43:46.190937 15447 net.cpp:382] cls_bridge -> label-valid
I0912 20:43:46.191193 15447 net.cpp:124] Setting up cls_bridge
I0912 20:43:46.191208 15447 net.cpp:131] Top shape: 64 2 (128)
I0912 20:43:46.191220 15447 net.cpp:131] Top shape: 64 1 (64)
I0912 20:43:46.191229 15447 net.cpp:139] Memory required for data: 10899456
I0912 20:43:46.191239 15447 layer_factory.hpp:77] Creating layer fc5-1-valid_cls_bridge_0_split
I0912 20:43:46.191262 15447 net.cpp:86] Creating Layer fc5-1-valid_cls_bridge_0_split
I0912 20:43:46.191272 15447 net.cpp:408] fc5-1-valid_cls_bridge_0_split <- fc5-1-valid
I0912 20:43:46.191287 15447 net.cpp:382] fc5-1-valid_cls_bridge_0_split -> fc5-1-valid_cls_bridge_0_split_0
I0912 20:43:46.191304 15447 net.cpp:382] fc5-1-valid_cls_bridge_0_split -> fc5-1-valid_cls_bridge_0_split_1
I0912 20:43:46.191363 15447 net.cpp:124] Setting up fc5-1-valid_cls_bridge_0_split
I0912 20:43:46.191373 15447 net.cpp:131] Top shape: 64 2 (128)
I0912 20:43:46.191383 15447 net.cpp:131] Top shape: 64 2 (128)
I0912 20:43:46.191393 15447 net.cpp:139] Memory required for data: 10900480
I0912 20:43:46.191402 15447 layer_factory.hpp:77] Creating layer label-valid_cls_bridge_1_split
I0912 20:43:46.191414 15447 net.cpp:86] Creating Layer label-valid_cls_bridge_1_split
I0912 20:43:46.191424 15447 net.cpp:408] label-valid_cls_bridge_1_split <- label-valid
I0912 20:43:46.191437 15447 net.cpp:382] label-valid_cls_bridge_1_split -> label-valid_cls_bridge_1_split_0
I0912 20:43:46.191450 15447 net.cpp:382] label-valid_cls_bridge_1_split -> label-valid_cls_bridge_1_split_1
I0912 20:43:46.191504 15447 net.cpp:124] Setting up label-valid_cls_bridge_1_split
I0912 20:43:46.191514 15447 net.cpp:131] Top shape: 64 1 (64)
I0912 20:43:46.191524 15447 net.cpp:131] Top shape: 64 1 (64)
I0912 20:43:46.191547 15447 net.cpp:139] Memory required for data: 10900992
I0912 20:43:46.191560 15447 layer_factory.hpp:77] Creating layer cls_loss
I0912 20:43:46.191998 15447 net.cpp:86] Creating Layer cls_loss
I0912 20:43:46.192013 15447 net.cpp:408] cls_loss <- fc5-1-valid_cls_bridge_0_split_0
I0912 20:43:46.192023 15447 net.cpp:408] cls_loss <- label-valid_cls_bridge_1_split_0
I0912 20:43:46.192036 15447 net.cpp:382] cls_loss -> cls_loss
…
