…
weights: "24net-only-cls.caffemodel"
I0920 11:11:10.833410  8960 solver.cpp:102] Creating training net from net file: train24.prototxt
I0920 11:11:10.835422  8960 net.cpp:296] The NetState phase (0) differed from the phase (1) specified by a rule in layer cls_acc
I0920 11:11:10.835433  8960 net.cpp:53] Initializing net from parameters: 
name: "face_24c"
state {
  phase: TRAIN
  level: 0
  stage: ""
}
layer {
  name: "PythonLayer"
  type: "Python"
  top: "data"
  top: "label"
  top: "roi"
  top: "pts"
  python_param {
    module: "pythonLayer"
    layer: "Data_Layer_train"
  }
}
layer {
  name: "conv1"
  type: "Convolution"
  bottom: "data"
  top: "conv1"
  param {
    lr_mult: 1
  }
  param {
    lr_mult: 2
  }
  convolution_param {
    num_output: 28
    kernel_size: 3
    weight_filler {
      type: "gaussian"
      std: 0.0001
    }
    bias_filler {
      type: "constant"
    }
  }
}
layer {
  name: "relu1"
  type: "PReLU"
  bottom: "conv1"
  top: "conv1"
}
layer {
  name: "pool1"
  type: "Pooling"
  bottom: "conv1"
  top: "pool1"
  pooling_param {
    pool: MAX
    kernel_size: 3
    stride: 2
  }
}
layer {
  name: "conv2"
  type: "Convolution"
  bottom: "pool1"
  top: "conv2"
  param {
    lr_mult: 1
  }
  param {
    lr_mult: 2
  }
  convolution_param {
    num_output: 48
    kernel_size: 3
    weight_filler {
      type: "gaussian"
      std: 0.0001
    }
    bias_filler {
      type: "constant"
    }
  }
}
layer {
  name: "relu2"
  type: "PReLU"
  bottom: "conv2"
  top: "conv2"
}
layer {
  name: "pool2"
  type: "Pooling"
  bottom: "conv2"
  top: "pool2"
  pooling_param {
    pool: MAX
    kernel_size: 3
    stride: 2
  }
}
layer {
  name: "conv3"
  type: "Convolution"
  bottom: "pool2"
  top: "conv3"
  param {
    lr_mult: 1
    decay_mult: 1
  }
  param {
    lr_mult: 2
    decay_mult: 0
  }
  convolution_param {
    num_output: 64
    kernel_size: 2
    stride: 1
    weight_filler {
      type: "xavier"
    }
    bias_filler {
      type: "constant"
      value: 0
    }
  }
}
layer {
  name: "relu3"
  type: "PReLU"
  bottom: "conv3"
  top: "conv3"
}
layer {
  name: "fc4"
  type: "InnerProduct"
  bottom: "conv3"
  top: "fc4"
  param {
    lr_mult: 1
    decay_mult: 1
  }
  param {
    lr_mult: 2
    decay_mult: 0
  }
  inner_product_param {
    num_output: 128
    weight_filler {
      type: "xavier"
    }
    bias_filler {
      type: "constant"
      value: 0
    }
  }
}
layer {
  name: "relu4"
  type: "PReLU"
  bottom: "fc4"
  top: "fc4"
}
layer {
  name: "fc5-1"
  type: "InnerProduct"
  bottom: "fc4"
  top: "fc5-1"
  param {
    lr_mult: 1
    decay_mult: 1
  }
  param {
    lr_mult: 2
    decay_mult: 0
  }
  inner_product_param {
    num_output: 2
    weight_filler {
      type: "xavier"
    }
    bias_filler {
      type: "constant"
      value: 0
    }
  }
}
layer {
  name: "cls_bridge"
  type: "Python"
  bottom: "fc5-1"
  bottom: "label"
  top: "fc5-1-valid"
  top: "label-valid"
  python_param {
    module: "pythonLayer"
    layer: "cls_Layer"
  }
}
layer {
  name: "cls_loss"
  type: "SoftmaxWithLoss"
  bottom: "fc5-1-valid"
  bottom: "label-valid"
  top: "cls_loss"
  loss_weight: 1
  propagate_down: true
  propagate_down: false
}
layer {
  name: "cls_acc"
  type: "Accuracy"
  bottom: "fc5-1-valid"
  bottom: "label-valid"
  top: "cls_acc"
  include {
    phase: TRAIN
  }
}
layer {
  name: "fc5-2"
  type: "InnerProduct"
  bottom: "fc4"
  top: "fc5-2"
  param {
    lr_mult: 1
    decay_mult: 1
  }
  param {
    lr_mult: 2
    decay_mult: 0
  }
  inner_product_param {
    num_output: 4
    weight_filler {
      type: "xavier"
    }
    bias_filler {
      type: "constant"
      value: 0
    }
  }
}
layer {
  name: "roi_loss"
  type: "Python"
  bottom: "fc5-2"
  bottom: "roi"
  top: "roi_loss"
  loss_weight: 0.5
  python_param {
    module: "pythonLayer"
    layer: "regression_Layer"
  }
}
layer {
  name: "fc5-3"
  type: "InnerProduct"
  bottom: "fc4"
  top: "fc5-3"
  param {
    lr_mult: 1
    decay_mult: 1
  }
  param {
    lr_mult: 2
    decay_mult: 0
  }
  inner_product_param {
    num_output: 10
    weight_filler {
      type: "xavier"
    }
    bias_filler {
      type: "constant"
      value: 0
    }
  }
}
layer {
  name: "pts_loss"
  type: "Python"
  bottom: "fc5-3"
  bottom: "pts"
  top: "pts_loss"
  loss_weight: 0.5
  python_param {
    module: "pythonLayer"
    layer: "regression_Layer"
  }
}
I0920 11:11:10.835620  8960 layer_factory.hpp:77] Creating layer PythonLayer
I0920 11:11:11.901664  8960 net.cpp:86] Creating Layer PythonLayer
I0920 11:11:11.901713  8960 net.cpp:382] PythonLayer -> data
I0920 11:11:11.901736  8960 net.cpp:382] PythonLayer -> label
I0920 11:11:11.901751  8960 net.cpp:382] PythonLayer -> roi
I0920 11:11:11.901757  8960 net.cpp:382] PythonLayer -> pts
I0920 11:11:23.428095  8960 net.cpp:124] Setting up PythonLayer
I0920 11:11:23.428131  8960 net.cpp:131] Top shape: 64 3 24 24 (110592)
I0920 11:11:23.428139  8960 net.cpp:131] Top shape: 64 1 (64)
I0920 11:11:23.428143  8960 net.cpp:131] Top shape: 64 4 (256)
I0920 11:11:23.428146  8960 net.cpp:131] Top shape: 64 10 (640)
I0920 11:11:23.428150  8960 net.cpp:139] Memory required for data: 446208
I0920 11:11:23.428159  8960 layer_factory.hpp:77] Creating layer conv1
I0920 11:11:23.428184  8960 net.cpp:86] Creating Layer conv1
I0920 11:11:23.428190  8960 net.cpp:408] conv1 <- data
I0920 11:11:23.428206  8960 net.cpp:382] conv1 -> conv1
I0920 11:11:25.486726  8960 net.cpp:124] Setting up conv1
I0920 11:11:25.486811  8960 net.cpp:131] Top shape: 64 28 22 22 (867328)
I0920 11:11:25.486830  8960 net.cpp:139] Memory required for data: 3915520
I0920 11:11:25.486878  8960 layer_factory.hpp:77] Creating layer relu1
I0920 11:11:25.486901  8960 net.cpp:86] Creating Layer relu1
I0920 11:11:25.486912  8960 net.cpp:408] relu1 <- conv1
I0920 11:11:25.486927  8960 net.cpp:369] relu1 -> conv1 (in-place)
I0920 11:11:25.487128  8960 net.cpp:124] Setting up relu1
I0920 11:11:25.487143  8960 net.cpp:131] Top shape: 64 28 22 22 (867328)
I0920 11:11:25.487156  8960 net.cpp:139] Memory required for data: 7384832
I0920 11:11:25.487170  8960 layer_factory.hpp:77] Creating layer pool1
I0920 11:11:25.487188  8960 net.cpp:86] Creating Layer pool1
I0920 11:11:25.487202  8960 net.cpp:408] pool1 <- conv1
I0920 11:11:25.487215  8960 net.cpp:382] pool1 -> pool1
I0920 11:11:25.487809  8960 net.cpp:124] Setting up pool1
I0920 11:11:25.487828  8960 net.cpp:131] Top shape: 64 28 11 11 (216832)
I0920 11:11:25.487840  8960 net.cpp:139] Memory required for data: 8252160
I0920 11:11:25.487850  8960 layer_factory.hpp:77] Creating layer conv2
I0920 11:11:25.487872  8960 net.cpp:86] Creating Layer conv2
I0920 11:11:25.487885  8960 net.cpp:408] conv2 <- pool1
I0920 11:11:25.487898  8960 net.cpp:382] conv2 -> conv2
I0920 11:11:25.492278  8960 net.cpp:124] Setting up conv2
I0920 11:11:25.492317  8960 net.cpp:131] Top shape: 64 48 9 9 (248832)
I0920 11:11:25.492333  8960 net.cpp:139] Memory required for data: 9247488
I0920 11:11:25.492352  8960 layer_factory.hpp:77] Creating layer relu2
I0920 11:11:25.492368  8960 net.cpp:86] Creating Layer relu2
I0920 11:11:25.492381  8960 net.cpp:408] relu2 <- conv2
I0920 11:11:25.492398  8960 net.cpp:369] relu2 -> conv2 (in-place)
I0920 11:11:25.492566  8960 net.cpp:124] Setting up relu2
I0920 11:11:25.492580  8960 net.cpp:131] Top shape: 64 48 9 9 (248832)
I0920 11:11:25.492594  8960 net.cpp:139] Memory required for data: 10242816
I0920 11:11:25.492609  8960 layer_factory.hpp:77] Creating layer pool2
I0920 11:11:25.492621  8960 net.cpp:86] Creating Layer pool2
I0920 11:11:25.492631  8960 net.cpp:408] pool2 <- conv2
I0920 11:11:25.492662  8960 net.cpp:382] pool2 -> pool2
I0920 11:11:25.492722  8960 net.cpp:124] Setting up pool2
I0920 11:11:25.492764  8960 net.cpp:131] Top shape: 64 48 4 4 (49152)
I0920 11:11:25.492776  8960 net.cpp:139] Memory required for data: 10439424
I0920 11:11:25.492785  8960 layer_factory.hpp:77] Creating layer conv3
I0920 11:11:25.492803  8960 net.cpp:86] Creating Layer conv3
I0920 11:11:25.492815  8960 net.cpp:408] conv3 <- pool2
I0920 11:11:25.492827  8960 net.cpp:382] conv3 -> conv3
I0920 11:11:25.497601  8960 net.cpp:124] Setting up conv3
I0920 11:11:25.497632  8960 net.cpp:131] Top shape: 64 64 3 3 (36864)
I0920 11:11:25.497642  8960 net.cpp:139] Memory required for data: 10586880
I0920 11:11:25.497654  8960 layer_factory.hpp:77] Creating layer relu3
I0920 11:11:25.497666  8960 net.cpp:86] Creating Layer relu3
I0920 11:11:25.497674  8960 net.cpp:408] relu3 <- conv3
I0920 11:11:25.497684  8960 net.cpp:369] relu3 -> conv3 (in-place)
I0920 11:11:25.497828  8960 net.cpp:124] Setting up relu3
I0920 11:11:25.497840  8960 net.cpp:131] Top shape: 64 64 3 3 (36864)
I0920 11:11:25.497850  8960 net.cpp:139] Memory required for data: 10734336
I0920 11:11:25.497864  8960 layer_factory.hpp:77] Creating layer fc4
I0920 11:11:25.497882  8960 net.cpp:86] Creating Layer fc4
I0920 11:11:25.497892  8960 net.cpp:408] fc4 <- conv3
I0920 11:11:25.497902  8960 net.cpp:382] fc4 -> fc4
I0920 11:11:25.498682  8960 net.cpp:124] Setting up fc4
I0920 11:11:25.498694  8960 net.cpp:131] Top shape: 64 128 (8192)
I0920 11:11:25.498703  8960 net.cpp:139] Memory required for data: 10767104
I0920 11:11:25.498713  8960 layer_factory.hpp:77] Creating layer relu4
I0920 11:11:25.498721  8960 net.cpp:86] Creating Layer relu4
I0920 11:11:25.498728  8960 net.cpp:408] relu4 <- fc4
I0920 11:11:25.498737  8960 net.cpp:369] relu4 -> fc4 (in-place)
I0920 11:11:25.498843  8960 net.cpp:124] Setting up relu4
I0920 11:11:25.498853  8960 net.cpp:131] Top shape: 64 128 (8192)
I0920 11:11:25.498862  8960 net.cpp:139] Memory required for data: 10799872
I0920 11:11:25.498869  8960 layer_factory.hpp:77] Creating layer fc4_relu4_0_split
I0920 11:11:25.498884  8960 net.cpp:86] Creating Layer fc4_relu4_0_split
I0920 11:11:25.498893  8960 net.cpp:408] fc4_relu4_0_split <- fc4
I0920 11:11:25.498903  8960 net.cpp:382] fc4_relu4_0_split -> fc4_relu4_0_split_0
I0920 11:11:25.498914  8960 net.cpp:382] fc4_relu4_0_split -> fc4_relu4_0_split_1
I0920 11:11:25.498929  8960 net.cpp:382] fc4_relu4_0_split -> fc4_relu4_0_split_2
I0920 11:11:25.498984  8960 net.cpp:124] Setting up fc4_relu4_0_split
I0920 11:11:25.498994  8960 net.cpp:131] Top shape: 64 128 (8192)
I0920 11:11:25.499002  8960 net.cpp:131] Top shape: 64 128 (8192)
I0920 11:11:25.499009  8960 net.cpp:131] Top shape: 64 128 (8192)
I0920 11:11:25.499017  8960 net.cpp:139] Memory required for data: 10898176
I0920 11:11:25.499024  8960 layer_factory.hpp:77] Creating layer fc5-1
I0920 11:11:25.499034  8960 net.cpp:86] Creating Layer fc5-1
I0920 11:11:25.499042  8960 net.cpp:408] fc5-1 <- fc4_relu4_0_split_0
I0920 11:11:25.499052  8960 net.cpp:382] fc5-1 -> fc5-1
I0920 11:11:25.499167  8960 net.cpp:124] Setting up fc5-1
I0920 11:11:25.499177  8960 net.cpp:131] Top shape: 64 2 (128)
I0920 11:11:25.499186  8960 net.cpp:139] Memory required for data: 10898688
I0920 11:11:25.499197  8960 layer_factory.hpp:77] Creating layer cls_bridge
I0920 11:11:25.499270  8960 net.cpp:86] Creating Layer cls_bridge
I0920 11:11:25.499281  8960 net.cpp:408] cls_bridge <- fc5-1
I0920 11:11:25.499289  8960 net.cpp:408] cls_bridge <- label
I0920 11:11:25.499300  8960 net.cpp:382] cls_bridge -> fc5-1-valid
I0920 11:11:25.499310  8960 net.cpp:382] cls_bridge -> label-valid
I0920 11:11:25.499481  8960 net.cpp:124] Setting up cls_bridge
I0920 11:11:25.499495  8960 net.cpp:131] Top shape: 64 2 (128)
I0920 11:11:25.499505  8960 net.cpp:131] Top shape: 64 1 (64)
I0920 11:11:25.499512  8960 net.cpp:139] Memory required for data: 10899456
I0920 11:11:25.499519  8960 layer_factory.hpp:77] Creating layer fc5-1-valid_cls_bridge_0_split
I0920 11:11:25.499539  8960 net.cpp:86] Creating Layer fc5-1-valid_cls_bridge_0_split
I0920 11:11:25.499547  8960 net.cpp:408] fc5-1-valid_cls_bridge_0_split <- fc5-1-valid
I0920 11:11:25.499573  8960 net.cpp:382] fc5-1-valid_cls_bridge_0_split -> fc5-1-valid_cls_bridge_0_split_0
I0920 11:11:25.499586  8960 net.cpp:382] fc5-1-valid_cls_bridge_0_split -> fc5-1-valid_cls_bridge_0_split_1
I0920 11:11:25.499629  8960 net.cpp:124] Setting up fc5-1-valid_cls_bridge_0_split
I0920 11:11:25.499639  8960 net.cpp:131] Top shape: 64 2 (128)
I0920 11:11:25.499647  8960 net.cpp:131] Top shape: 64 2 (128)
I0920 11:11:25.499655  8960 net.cpp:139] Memory required for data: 10900480
I0920 11:11:25.499662  8960 layer_factory.hpp:77] Creating layer label-valid_cls_bridge_1_split
I0920 11:11:25.499671  8960 net.cpp:86] Creating Layer label-valid_cls_bridge_1_split
I0920 11:11:25.499678  8960 net.cpp:408] label-valid_cls_bridge_1_split <- label-valid
I0920 11:11:25.499687  8960 net.cpp:382] label-valid_cls_bridge_1_split -> label-valid_cls_bridge_1_split_0
I0920 11:11:25.499697  8960 net.cpp:382] label-valid_cls_bridge_1_split -> label-valid_cls_bridge_1_split_1
I0920 11:11:25.499739  8960 net.cpp:124] Setting up label-valid_cls_bridge_1_split
I0920 11:11:25.499749  8960 net.cpp:131] Top shape: 64 1 (64)
I0920 11:11:25.499758  8960 net.cpp:131] Top shape: 64 1 (64)
I0920 11:11:25.499764  8960 net.cpp:139] Memory required for data: 10900992
I0920 11:11:25.499773  8960 layer_factory.hpp:77] Creating layer cls_loss
I0920 11:11:25.500191  8960 net.cpp:86] Creating Layer cls_loss
I0920 11:11:25.500206  8960 net.cpp:408] cls_loss <- fc5-1-valid_cls_bridge_0_split_0
I0920 11:11:25.500214  8960 net.cpp:408] cls_loss <- label-valid_cls_bridge_1_split_0
I0920 11:11:25.500224  8960 net.cpp:382] cls_loss -> cls_loss
…
