…
weights: "24net-only-cls.caffemodel"
I0920 19:09:33.373769 11923 solver.cpp:102] Creating training net from net file: train24.prototxt
I0920 19:09:33.376127 11923 net.cpp:296] The NetState phase (0) differed from the phase (1) specified by a rule in layer cls_acc
I0920 19:09:33.376163 11923 net.cpp:53] Initializing net from parameters: 
name: "face_24c"
state {
  phase: TRAIN
  level: 0
  stage: ""
}
layer {
  name: "PythonLayer"
  type: "Python"
  top: "data"
  top: "label"
  top: "roi"
  top: "pts"
  python_param {
    module: "pythonLayer"
    layer: "Data_Layer_train"
  }
}
layer {
  name: "conv1"
  type: "Convolution"
  bottom: "data"
  top: "conv1"
  param {
    lr_mult: 1
  }
  param {
    lr_mult: 2
  }
  convolution_param {
    num_output: 28
    kernel_size: 3
    weight_filler {
      type: "gaussian"
      std: 0.0001
    }
    bias_filler {
      type: "constant"
    }
  }
}
layer {
  name: "relu1"
  type: "PReLU"
  bottom: "conv1"
  top: "conv1"
}
layer {
  name: "pool1"
  type: "Pooling"
  bottom: "conv1"
  top: "pool1"
  pooling_param {
    pool: MAX
    kernel_size: 3
    stride: 2
  }
}
layer {
  name: "conv2"
  type: "Convolution"
  bottom: "pool1"
  top: "conv2"
  param {
    lr_mult: 1
  }
  param {
    lr_mult: 2
  }
  convolution_param {
    num_output: 48
    kernel_size: 3
    weight_filler {
      type: "gaussian"
      std: 0.0001
    }
    bias_filler {
      type: "constant"
    }
  }
}
layer {
  name: "relu2"
  type: "PReLU"
  bottom: "conv2"
  top: "conv2"
}
layer {
  name: "pool2"
  type: "Pooling"
  bottom: "conv2"
  top: "pool2"
  pooling_param {
    pool: MAX
    kernel_size: 3
    stride: 2
  }
}
layer {
  name: "conv3"
  type: "Convolution"
  bottom: "pool2"
  top: "conv3"
  param {
    lr_mult: 1
    decay_mult: 1
  }
  param {
    lr_mult: 2
    decay_mult: 0
  }
  convolution_param {
    num_output: 64
    kernel_size: 2
    stride: 1
    weight_filler {
      type: "xavier"
    }
    bias_filler {
      type: "constant"
      value: 0
    }
  }
}
layer {
  name: "relu3"
  type: "PReLU"
  bottom: "conv3"
  top: "conv3"
}
layer {
  name: "fc4"
  type: "InnerProduct"
  bottom: "conv3"
  top: "fc4"
  param {
    lr_mult: 1
    decay_mult: 1
  }
  param {
    lr_mult: 2
    decay_mult: 0
  }
  inner_product_param {
    num_output: 128
    weight_filler {
      type: "xavier"
    }
    bias_filler {
      type: "constant"
      value: 0
    }
  }
}
layer {
  name: "relu4"
  type: "PReLU"
  bottom: "fc4"
  top: "fc4"
}
layer {
  name: "fc5-1"
  type: "InnerProduct"
  bottom: "fc4"
  top: "fc5-1"
  param {
    lr_mult: 1
    decay_mult: 1
  }
  param {
    lr_mult: 2
    decay_mult: 0
  }
  inner_product_param {
    num_output: 2
    weight_filler {
      type: "xavier"
    }
    bias_filler {
      type: "constant"
      value: 0
    }
  }
}
layer {
  name: "cls_bridge"
  type: "Python"
  bottom: "fc5-1"
  bottom: "label"
  top: "fc5-1-valid"
  top: "label-valid"
  python_param {
    module: "pythonLayer"
    layer: "cls_Layer"
  }
}
layer {
  name: "cls_loss"
  type: "SoftmaxWithLoss"
  bottom: "fc5-1-valid"
  bottom: "label-valid"
  top: "cls_loss"
  loss_weight: 1
  propagate_down: true
  propagate_down: false
}
layer {
  name: "cls_acc"
  type: "Accuracy"
  bottom: "fc5-1-valid"
  bottom: "label-valid"
  top: "cls_acc"
  include {
    phase: TRAIN
  }
}
layer {
  name: "fc5-2"
  type: "InnerProduct"
  bottom: "fc4"
  top: "fc5-2"
  param {
    lr_mult: 1
    decay_mult: 1
  }
  param {
    lr_mult: 2
    decay_mult: 0
  }
  inner_product_param {
    num_output: 4
    weight_filler {
      type: "xavier"
    }
    bias_filler {
      type: "constant"
      value: 0
    }
  }
}
layer {
  name: "roi_loss"
  type: "Python"
  bottom: "fc5-2"
  bottom: "roi"
  top: "roi_loss"
  loss_weight: 0.5
  python_param {
    module: "pythonLayer"
    layer: "regression_Layer"
  }
}
layer {
  name: "fc5-3"
  type: "InnerProduct"
  bottom: "fc4"
  top: "fc5-3"
  param {
    lr_mult: 1
    decay_mult: 1
  }
  param {
    lr_mult: 2
    decay_mult: 0
  }
  inner_product_param {
    num_output: 10
    weight_filler {
      type: "xavier"
    }
    bias_filler {
      type: "constant"
      value: 0
    }
  }
}
layer {
  name: "pts_loss"
  type: "Python"
  bottom: "fc5-3"
  bottom: "pts"
  top: "pts_loss"
  loss_weight: 0.5
  python_param {
    module: "pythonLayer"
    layer: "regression_Layer"
  }
}
I0920 19:09:33.376422 11923 layer_factory.hpp:77] Creating layer PythonLayer
I0920 19:09:34.602150 11923 net.cpp:86] Creating Layer PythonLayer
I0920 19:09:34.602200 11923 net.cpp:382] PythonLayer -> data
I0920 19:09:34.602226 11923 net.cpp:382] PythonLayer -> label
I0920 19:09:34.602236 11923 net.cpp:382] PythonLayer -> roi
I0920 19:09:34.602242 11923 net.cpp:382] PythonLayer -> pts
I0920 19:09:48.016705 11923 net.cpp:124] Setting up PythonLayer
I0920 19:09:48.016742 11923 net.cpp:131] Top shape: 64 3 24 24 (110592)
I0920 19:09:48.016752 11923 net.cpp:131] Top shape: 64 1 (64)
I0920 19:09:48.016755 11923 net.cpp:131] Top shape: 64 4 (256)
I0920 19:09:48.016759 11923 net.cpp:131] Top shape: 64 10 (640)
I0920 19:09:48.016762 11923 net.cpp:139] Memory required for data: 446208
I0920 19:09:48.016773 11923 layer_factory.hpp:77] Creating layer conv1
I0920 19:09:48.016800 11923 net.cpp:86] Creating Layer conv1
I0920 19:09:48.016806 11923 net.cpp:408] conv1 <- data
I0920 19:09:48.016824 11923 net.cpp:382] conv1 -> conv1
I0920 19:09:49.984508 11923 net.cpp:124] Setting up conv1
I0920 19:09:49.984577 11923 net.cpp:131] Top shape: 64 28 22 22 (867328)
I0920 19:09:49.984597 11923 net.cpp:139] Memory required for data: 3915520
I0920 19:09:49.984649 11923 layer_factory.hpp:77] Creating layer relu1
I0920 19:09:49.984678 11923 net.cpp:86] Creating Layer relu1
I0920 19:09:49.984694 11923 net.cpp:408] relu1 <- conv1
I0920 19:09:49.984710 11923 net.cpp:369] relu1 -> conv1 (in-place)
I0920 19:09:49.984946 11923 net.cpp:124] Setting up relu1
I0920 19:09:49.984961 11923 net.cpp:131] Top shape: 64 28 22 22 (867328)
I0920 19:09:49.984975 11923 net.cpp:139] Memory required for data: 7384832
I0920 19:09:49.984992 11923 layer_factory.hpp:77] Creating layer pool1
I0920 19:09:49.985008 11923 net.cpp:86] Creating Layer pool1
I0920 19:09:49.985020 11923 net.cpp:408] pool1 <- conv1
I0920 19:09:49.985034 11923 net.cpp:382] pool1 -> pool1
I0920 19:09:49.985594 11923 net.cpp:124] Setting up pool1
I0920 19:09:49.985610 11923 net.cpp:131] Top shape: 64 28 11 11 (216832)
I0920 19:09:49.985620 11923 net.cpp:139] Memory required for data: 8252160
I0920 19:09:49.985630 11923 layer_factory.hpp:77] Creating layer conv2
I0920 19:09:49.985651 11923 net.cpp:86] Creating Layer conv2
I0920 19:09:49.985662 11923 net.cpp:408] conv2 <- pool1
I0920 19:09:49.985674 11923 net.cpp:382] conv2 -> conv2
I0920 19:09:49.990237 11923 net.cpp:124] Setting up conv2
I0920 19:09:49.990278 11923 net.cpp:131] Top shape: 64 48 9 9 (248832)
I0920 19:09:49.990294 11923 net.cpp:139] Memory required for data: 9247488
I0920 19:09:49.990321 11923 layer_factory.hpp:77] Creating layer relu2
I0920 19:09:49.990341 11923 net.cpp:86] Creating Layer relu2
I0920 19:09:49.990356 11923 net.cpp:408] relu2 <- conv2
I0920 19:09:49.990370 11923 net.cpp:369] relu2 -> conv2 (in-place)
I0920 19:09:49.990566 11923 net.cpp:124] Setting up relu2
I0920 19:09:49.990581 11923 net.cpp:131] Top shape: 64 48 9 9 (248832)
I0920 19:09:49.990593 11923 net.cpp:139] Memory required for data: 10242816
I0920 19:09:49.990607 11923 layer_factory.hpp:77] Creating layer pool2
I0920 19:09:49.990620 11923 net.cpp:86] Creating Layer pool2
I0920 19:09:49.990630 11923 net.cpp:408] pool2 <- conv2
I0920 19:09:49.990661 11923 net.cpp:382] pool2 -> pool2
I0920 19:09:49.990723 11923 net.cpp:124] Setting up pool2
I0920 19:09:49.990881 11923 net.cpp:131] Top shape: 64 48 4 4 (49152)
I0920 19:09:49.990895 11923 net.cpp:139] Memory required for data: 10439424
I0920 19:09:49.990906 11923 layer_factory.hpp:77] Creating layer conv3
I0920 19:09:49.990929 11923 net.cpp:86] Creating Layer conv3
I0920 19:09:49.990943 11923 net.cpp:408] conv3 <- pool2
I0920 19:09:49.990957 11923 net.cpp:382] conv3 -> conv3
I0920 19:09:49.996191 11923 net.cpp:124] Setting up conv3
I0920 19:09:49.996227 11923 net.cpp:131] Top shape: 64 64 3 3 (36864)
I0920 19:09:49.996243 11923 net.cpp:139] Memory required for data: 10586880
I0920 19:09:49.996260 11923 layer_factory.hpp:77] Creating layer relu3
I0920 19:09:49.996279 11923 net.cpp:86] Creating Layer relu3
I0920 19:09:49.996291 11923 net.cpp:408] relu3 <- conv3
I0920 19:09:49.996304 11923 net.cpp:369] relu3 -> conv3 (in-place)
I0920 19:09:49.996472 11923 net.cpp:124] Setting up relu3
I0920 19:09:49.996486 11923 net.cpp:131] Top shape: 64 64 3 3 (36864)
I0920 19:09:49.996498 11923 net.cpp:139] Memory required for data: 10734336
I0920 19:09:49.996512 11923 layer_factory.hpp:77] Creating layer fc4
I0920 19:09:49.996531 11923 net.cpp:86] Creating Layer fc4
I0920 19:09:49.996543 11923 net.cpp:408] fc4 <- conv3
I0920 19:09:49.996557 11923 net.cpp:382] fc4 -> fc4
I0920 19:09:49.997426 11923 net.cpp:124] Setting up fc4
I0920 19:09:49.997437 11923 net.cpp:131] Top shape: 64 128 (8192)
I0920 19:09:49.997447 11923 net.cpp:139] Memory required for data: 10767104
I0920 19:09:49.997457 11923 layer_factory.hpp:77] Creating layer relu4
I0920 19:09:49.997472 11923 net.cpp:86] Creating Layer relu4
I0920 19:09:49.997483 11923 net.cpp:408] relu4 <- fc4
I0920 19:09:49.997490 11923 net.cpp:369] relu4 -> fc4 (in-place)
I0920 19:09:49.997582 11923 net.cpp:124] Setting up relu4
I0920 19:09:49.997592 11923 net.cpp:131] Top shape: 64 128 (8192)
I0920 19:09:49.997601 11923 net.cpp:139] Memory required for data: 10799872
I0920 19:09:49.997609 11923 layer_factory.hpp:77] Creating layer fc4_relu4_0_split
I0920 19:09:49.997620 11923 net.cpp:86] Creating Layer fc4_relu4_0_split
I0920 19:09:49.997628 11923 net.cpp:408] fc4_relu4_0_split <- fc4
I0920 19:09:49.997638 11923 net.cpp:382] fc4_relu4_0_split -> fc4_relu4_0_split_0
I0920 19:09:49.997650 11923 net.cpp:382] fc4_relu4_0_split -> fc4_relu4_0_split_1
I0920 19:09:49.997664 11923 net.cpp:382] fc4_relu4_0_split -> fc4_relu4_0_split_2
I0920 19:09:49.997726 11923 net.cpp:124] Setting up fc4_relu4_0_split
I0920 19:09:49.997736 11923 net.cpp:131] Top shape: 64 128 (8192)
I0920 19:09:49.997743 11923 net.cpp:131] Top shape: 64 128 (8192)
I0920 19:09:49.997751 11923 net.cpp:131] Top shape: 64 128 (8192)
I0920 19:09:49.997758 11923 net.cpp:139] Memory required for data: 10898176
I0920 19:09:49.997767 11923 layer_factory.hpp:77] Creating layer fc5-1
I0920 19:09:49.997777 11923 net.cpp:86] Creating Layer fc5-1
I0920 19:09:49.997812 11923 net.cpp:408] fc5-1 <- fc4_relu4_0_split_0
I0920 19:09:49.997826 11923 net.cpp:382] fc5-1 -> fc5-1
I0920 19:09:49.997956 11923 net.cpp:124] Setting up fc5-1
I0920 19:09:49.997968 11923 net.cpp:131] Top shape: 64 2 (128)
I0920 19:09:49.997977 11923 net.cpp:139] Memory required for data: 10898688
I0920 19:09:49.997985 11923 layer_factory.hpp:77] Creating layer cls_bridge
I0920 19:09:49.998126 11923 net.cpp:86] Creating Layer cls_bridge
I0920 19:09:49.998136 11923 net.cpp:408] cls_bridge <- fc5-1
I0920 19:09:49.998145 11923 net.cpp:408] cls_bridge <- label
I0920 19:09:49.998154 11923 net.cpp:382] cls_bridge -> fc5-1-valid
I0920 19:09:49.998167 11923 net.cpp:382] cls_bridge -> label-valid
I0920 19:09:49.998560 11923 net.cpp:124] Setting up cls_bridge
I0920 19:09:49.998579 11923 net.cpp:131] Top shape: 64 2 (128)
I0920 19:09:49.998587 11923 net.cpp:131] Top shape: 64 1 (64)
I0920 19:09:49.998594 11923 net.cpp:139] Memory required for data: 10899456
I0920 19:09:49.998602 11923 layer_factory.hpp:77] Creating layer fc5-1-valid_cls_bridge_0_split
I0920 19:09:49.998625 11923 net.cpp:86] Creating Layer fc5-1-valid_cls_bridge_0_split
I0920 19:09:49.998633 11923 net.cpp:408] fc5-1-valid_cls_bridge_0_split <- fc5-1-valid
I0920 19:09:49.998659 11923 net.cpp:382] fc5-1-valid_cls_bridge_0_split -> fc5-1-valid_cls_bridge_0_split_0
I0920 19:09:49.998674 11923 net.cpp:382] fc5-1-valid_cls_bridge_0_split -> fc5-1-valid_cls_bridge_0_split_1
I0920 19:09:49.998720 11923 net.cpp:124] Setting up fc5-1-valid_cls_bridge_0_split
I0920 19:09:49.998730 11923 net.cpp:131] Top shape: 64 2 (128)
I0920 19:09:49.998739 11923 net.cpp:131] Top shape: 64 2 (128)
I0920 19:09:49.998746 11923 net.cpp:139] Memory required for data: 10900480
I0920 19:09:49.998755 11923 layer_factory.hpp:77] Creating layer label-valid_cls_bridge_1_split
I0920 19:09:49.998764 11923 net.cpp:86] Creating Layer label-valid_cls_bridge_1_split
I0920 19:09:49.998772 11923 net.cpp:408] label-valid_cls_bridge_1_split <- label-valid
I0920 19:09:49.998781 11923 net.cpp:382] label-valid_cls_bridge_1_split -> label-valid_cls_bridge_1_split_0
I0920 19:09:49.998793 11923 net.cpp:382] label-valid_cls_bridge_1_split -> label-valid_cls_bridge_1_split_1
I0920 19:09:49.998837 11923 net.cpp:124] Setting up label-valid_cls_bridge_1_split
I0920 19:09:49.998847 11923 net.cpp:131] Top shape: 64 1 (64)
I0920 19:09:49.998854 11923 net.cpp:131] Top shape: 64 1 (64)
I0920 19:09:49.998862 11923 net.cpp:139] Memory required for data: 10900992
I0920 19:09:49.998869 11923 layer_factory.hpp:77] Creating layer cls_loss
I0920 19:09:49.999279 11923 net.cpp:86] Creating Layer cls_loss
I0920 19:09:49.999292 11923 net.cpp:408] cls_loss <- fc5-1-valid_cls_bridge_0_split_0
I0920 19:09:49.999305 11923 net.cpp:408] cls_loss <- label-valid_cls_bridge_1_split_0
I0920 19:09:49.999315 11923 net.cpp:382] cls_loss -> cls_loss
…
