…
weights: "12net-cls-only.caffemodel"
I0912 20:14:43.197194 14652 solver.cpp:102] Creating training net from net file: train12.prototxt
I0912 20:14:43.197376 14652 net.cpp:296] The NetState phase (0) differed from the phase (1) specified by a rule in layer cls_Acc
I0912 20:14:43.197386 14652 net.cpp:53] Initializing net from parameters: 
name: "face_12c"
state {
  phase: TRAIN
  level: 0
  stage: ""
}
layer {
  name: "PythonLayer"
  type: "Python"
  top: "data"
  top: "label"
  top: "roi"
  top: "pts"
  python_param {
    module: "pythonLayer"
    layer: "Data_Layer_train"
  }
}
layer {
  name: "conv1"
  type: "Convolution"
  bottom: "data"
  top: "conv1"
  param {
    lr_mult: 1
  }
  param {
    lr_mult: 2
  }
  convolution_param {
    num_output: 10
    kernel_size: 3
    weight_filler {
      type: "gaussian"
      std: 0.0001
    }
    bias_filler {
      type: "constant"
    }
  }
}
layer {
  name: "relu1"
  type: "PReLU"
  bottom: "conv1"
  top: "conv1"
}
layer {
  name: "pool1"
  type: "Pooling"
  bottom: "conv1"
  top: "pool1"
  pooling_param {
    pool: MAX
    kernel_size: 3
    stride: 2
  }
}
layer {
  name: "conv2"
  type: "Convolution"
  bottom: "pool1"
  top: "conv2"
  param {
    lr_mult: 1
  }
  param {
    lr_mult: 2
  }
  convolution_param {
    num_output: 16
    kernel_size: 3
    weight_filler {
      type: "gaussian"
      std: 0.0001
    }
    bias_filler {
      type: "constant"
    }
  }
}
layer {
  name: "relu2"
  type: "PReLU"
  bottom: "conv2"
  top: "conv2"
}
layer {
  name: "conv3"
  type: "Convolution"
  bottom: "conv2"
  top: "conv3"
  param {
    lr_mult: 1
    decay_mult: 1
  }
  param {
    lr_mult: 2
    decay_mult: 0
  }
  convolution_param {
    num_output: 32
    kernel_size: 3
    stride: 1
    weight_filler {
      type: "xavier"
    }
    bias_filler {
      type: "constant"
      value: 0
    }
  }
}
layer {
  name: "relu3"
  type: "PReLU"
  bottom: "conv3"
  top: "conv3"
}
layer {
  name: "conv4-1"
  type: "Convolution"
  bottom: "conv3"
  top: "conv4-1"
  param {
    lr_mult: 1
    decay_mult: 1
  }
  param {
    lr_mult: 2
    decay_mult: 0
  }
  convolution_param {
    num_output: 2
    kernel_size: 1
    stride: 1
    weight_filler {
      type: "xavier"
    }
    bias_filler {
      type: "constant"
      value: 0
    }
  }
}
layer {
  name: "cls_bridge"
  type: "Python"
  bottom: "conv4-1"
  bottom: "label"
  top: "conv4-1-valid"
  top: "label-valid"
  python_param {
    module: "pythonLayer"
    layer: "cls_Layer_fc"
  }
}
layer {
  name: "cls_loss"
  type: "SoftmaxWithLoss"
  bottom: "conv4-1-valid"
  bottom: "label-valid"
  top: "cls_loss"
  loss_weight: 1
  propagate_down: true
  propagate_down: false
}
layer {
  name: "cls_Acc"
  type: "Accuracy"
  bottom: "conv4-1-valid"
  bottom: "label-valid"
  top: "cls_Acc"
  include {
    phase: TRAIN
  }
}
layer {
  name: "conv4-2"
  type: "Convolution"
  bottom: "conv3"
  top: "conv4-2"
  param {
    lr_mult: 1
    decay_mult: 1
  }
  param {
    lr_mult: 2
    decay_mult: 0
  }
  convolution_param {
    num_output: 4
    kernel_size: 1
    stride: 1
    weight_filler {
      type: "xavier"
    }
    bias_filler {
      type: "constant"
      value: 0
    }
  }
}
layer {
  name: "roi_loss"
  type: "Python"
  bottom: "conv4-2"
  bottom: "roi"
  top: "roi_loss"
  loss_weight: 0.5
  python_param {
    module: "pythonLayer"
    layer: "regression_Layer"
  }
}
layer {
  name: "conv4-3"
  type: "Convolution"
  bottom: "conv3"
  top: "conv4-3"
  param {
    lr_mult: 1
    decay_mult: 1
  }
  param {
    lr_mult: 2
    decay_mult: 0
  }
  convolution_param {
    num_output: 10
    kernel_size: 1
    stride: 1
    weight_filler {
      type: "xavier"
    }
    bias_filler {
      type: "constant"
      value: 0
    }
  }
}
layer {
  name: "pts_loss"
  type: "Python"
  bottom: "conv4-3"
  bottom: "pts"
  top: "pts_loss"
  loss_weight: 0.5
  python_param {
    module: "pythonLayer"
    layer: "regression_Layer"
  }
}
I0912 20:14:43.197521 14652 layer_factory.hpp:77] Creating layer PythonLayer
I0912 20:14:43.667953 14652 net.cpp:86] Creating Layer PythonLayer
I0912 20:14:43.668000 14652 net.cpp:382] PythonLayer -> data
I0912 20:14:43.668023 14652 net.cpp:382] PythonLayer -> label
I0912 20:14:43.668033 14652 net.cpp:382] PythonLayer -> roi
I0912 20:14:43.668045 14652 net.cpp:382] PythonLayer -> pts
I0912 20:15:34.528880 14652 net.cpp:124] Setting up PythonLayer
I0912 20:15:34.528941 14652 net.cpp:131] Top shape: 64 3 12 12 (27648)
I0912 20:15:34.528971 14652 net.cpp:131] Top shape: 64 1 (64)
I0912 20:15:34.528977 14652 net.cpp:131] Top shape: 64 4 (256)
I0912 20:15:34.528981 14652 net.cpp:131] Top shape: 64 10 (640)
I0912 20:15:34.528986 14652 net.cpp:139] Memory required for data: 114432
I0912 20:15:34.529000 14652 layer_factory.hpp:77] Creating layer conv1
I0912 20:15:34.529052 14652 net.cpp:86] Creating Layer conv1
I0912 20:15:34.529062 14652 net.cpp:408] conv1 <- data
I0912 20:15:34.529083 14652 net.cpp:382] conv1 -> conv1
I0912 20:15:35.597121 14652 net.cpp:124] Setting up conv1
I0912 20:15:35.597162 14652 net.cpp:131] Top shape: 64 10 10 10 (64000)
I0912 20:15:35.597172 14652 net.cpp:139] Memory required for data: 370432
I0912 20:15:35.597199 14652 layer_factory.hpp:77] Creating layer relu1
I0912 20:15:35.597211 14652 net.cpp:86] Creating Layer relu1
I0912 20:15:35.597218 14652 net.cpp:408] relu1 <- conv1
I0912 20:15:35.597226 14652 net.cpp:369] relu1 -> conv1 (in-place)
I0912 20:15:35.597301 14652 net.cpp:124] Setting up relu1
I0912 20:15:35.597306 14652 net.cpp:131] Top shape: 64 10 10 10 (64000)
I0912 20:15:35.597312 14652 net.cpp:139] Memory required for data: 626432
I0912 20:15:35.597318 14652 layer_factory.hpp:77] Creating layer pool1
I0912 20:15:35.597326 14652 net.cpp:86] Creating Layer pool1
I0912 20:15:35.597332 14652 net.cpp:408] pool1 <- conv1
I0912 20:15:35.597338 14652 net.cpp:382] pool1 -> pool1
I0912 20:15:35.597369 14652 net.cpp:124] Setting up pool1
I0912 20:15:35.597374 14652 net.cpp:131] Top shape: 64 10 5 5 (16000)
I0912 20:15:35.597380 14652 net.cpp:139] Memory required for data: 690432
I0912 20:15:35.597385 14652 layer_factory.hpp:77] Creating layer conv2
I0912 20:15:35.597396 14652 net.cpp:86] Creating Layer conv2
I0912 20:15:35.597402 14652 net.cpp:408] conv2 <- pool1
I0912 20:15:35.597409 14652 net.cpp:382] conv2 -> conv2
I0912 20:15:35.598795 14652 net.cpp:124] Setting up conv2
I0912 20:15:35.598814 14652 net.cpp:131] Top shape: 64 16 3 3 (9216)
I0912 20:15:35.598821 14652 net.cpp:139] Memory required for data: 727296
I0912 20:15:35.598831 14652 layer_factory.hpp:77] Creating layer relu2
I0912 20:15:35.598839 14652 net.cpp:86] Creating Layer relu2
I0912 20:15:35.598845 14652 net.cpp:408] relu2 <- conv2
I0912 20:15:35.598852 14652 net.cpp:369] relu2 -> conv2 (in-place)
I0912 20:15:35.598912 14652 net.cpp:124] Setting up relu2
I0912 20:15:35.598917 14652 net.cpp:131] Top shape: 64 16 3 3 (9216)
I0912 20:15:35.598923 14652 net.cpp:139] Memory required for data: 764160
I0912 20:15:35.598932 14652 layer_factory.hpp:77] Creating layer conv3
I0912 20:15:35.598942 14652 net.cpp:86] Creating Layer conv3
I0912 20:15:35.598947 14652 net.cpp:408] conv3 <- conv2
I0912 20:15:35.598953 14652 net.cpp:382] conv3 -> conv3
I0912 20:15:35.600309 14652 net.cpp:124] Setting up conv3
I0912 20:15:35.600325 14652 net.cpp:131] Top shape: 64 32 1 1 (2048)
I0912 20:15:35.600332 14652 net.cpp:139] Memory required for data: 772352
I0912 20:15:35.600342 14652 layer_factory.hpp:77] Creating layer relu3
I0912 20:15:35.600349 14652 net.cpp:86] Creating Layer relu3
I0912 20:15:35.600355 14652 net.cpp:408] relu3 <- conv3
I0912 20:15:35.600371 14652 net.cpp:369] relu3 -> conv3 (in-place)
I0912 20:15:35.600436 14652 net.cpp:124] Setting up relu3
I0912 20:15:35.600440 14652 net.cpp:131] Top shape: 64 32 1 1 (2048)
I0912 20:15:35.600446 14652 net.cpp:139] Memory required for data: 780544
I0912 20:15:35.600452 14652 layer_factory.hpp:77] Creating layer conv3_relu3_0_split
I0912 20:15:35.600466 14652 net.cpp:86] Creating Layer conv3_relu3_0_split
I0912 20:15:35.600471 14652 net.cpp:408] conv3_relu3_0_split <- conv3
I0912 20:15:35.600477 14652 net.cpp:382] conv3_relu3_0_split -> conv3_relu3_0_split_0
I0912 20:15:35.600486 14652 net.cpp:382] conv3_relu3_0_split -> conv3_relu3_0_split_1
I0912 20:15:35.600493 14652 net.cpp:382] conv3_relu3_0_split -> conv3_relu3_0_split_2
I0912 20:15:35.600523 14652 net.cpp:124] Setting up conv3_relu3_0_split
I0912 20:15:35.600528 14652 net.cpp:131] Top shape: 64 32 1 1 (2048)
I0912 20:15:35.600543 14652 net.cpp:131] Top shape: 64 32 1 1 (2048)
I0912 20:15:35.600548 14652 net.cpp:131] Top shape: 64 32 1 1 (2048)
I0912 20:15:35.600554 14652 net.cpp:139] Memory required for data: 805120
I0912 20:15:35.600560 14652 layer_factory.hpp:77] Creating layer conv4-1
I0912 20:15:35.600570 14652 net.cpp:86] Creating Layer conv4-1
I0912 20:15:35.600575 14652 net.cpp:408] conv4-1 <- conv3_relu3_0_split_0
I0912 20:15:35.600581 14652 net.cpp:382] conv4-1 -> conv4-1
I0912 20:15:35.602855 14652 net.cpp:124] Setting up conv4-1
I0912 20:15:35.602872 14652 net.cpp:131] Top shape: 64 2 1 1 (128)
I0912 20:15:35.602879 14652 net.cpp:139] Memory required for data: 805632
I0912 20:15:35.602885 14652 layer_factory.hpp:77] Creating layer cls_bridge
I0912 20:15:35.602944 14652 net.cpp:86] Creating Layer cls_bridge
I0912 20:15:35.602952 14652 net.cpp:408] cls_bridge <- conv4-1
I0912 20:15:35.602957 14652 net.cpp:408] cls_bridge <- label
I0912 20:15:35.602963 14652 net.cpp:382] cls_bridge -> conv4-1-valid
I0912 20:15:35.602972 14652 net.cpp:382] cls_bridge -> label-valid
I0912 20:15:35.603094 14652 net.cpp:124] Setting up cls_bridge
I0912 20:15:35.603101 14652 net.cpp:131] Top shape: 64 2 1 1 (128)
I0912 20:15:35.603106 14652 net.cpp:131] Top shape: 64 1 (64)
I0912 20:15:35.603111 14652 net.cpp:139] Memory required for data: 806400
I0912 20:15:35.603116 14652 layer_factory.hpp:77] Creating layer conv4-1-valid_cls_bridge_0_split
I0912 20:15:35.603123 14652 net.cpp:86] Creating Layer conv4-1-valid_cls_bridge_0_split
I0912 20:15:35.603128 14652 net.cpp:408] conv4-1-valid_cls_bridge_0_split <- conv4-1-valid
I0912 20:15:35.603134 14652 net.cpp:382] conv4-1-valid_cls_bridge_0_split -> conv4-1-valid_cls_bridge_0_split_0
I0912 20:15:35.603142 14652 net.cpp:382] conv4-1-valid_cls_bridge_0_split -> conv4-1-valid_cls_bridge_0_split_1
I0912 20:15:35.603169 14652 net.cpp:124] Setting up conv4-1-valid_cls_bridge_0_split
I0912 20:15:35.603174 14652 net.cpp:131] Top shape: 64 2 1 1 (128)
I0912 20:15:35.603179 14652 net.cpp:131] Top shape: 64 2 1 1 (128)
I0912 20:15:35.603184 14652 net.cpp:139] Memory required for data: 807424
I0912 20:15:35.603188 14652 layer_factory.hpp:77] Creating layer label-valid_cls_bridge_1_split
I0912 20:15:35.603197 14652 net.cpp:86] Creating Layer label-valid_cls_bridge_1_split
I0912 20:15:35.603201 14652 net.cpp:408] label-valid_cls_bridge_1_split <- label-valid
I0912 20:15:35.603207 14652 net.cpp:382] label-valid_cls_bridge_1_split -> label-valid_cls_bridge_1_split_0
I0912 20:15:35.603214 14652 net.cpp:382] label-valid_cls_bridge_1_split -> label-valid_cls_bridge_1_split_1
I0912 20:15:35.603240 14652 net.cpp:124] Setting up label-valid_cls_bridge_1_split
I0912 20:15:35.603245 14652 net.cpp:131] Top shape: 64 1 (64)
I0912 20:15:35.603250 14652 net.cpp:131] Top shape: 64 1 (64)
I0912 20:15:35.603255 14652 net.cpp:139] Memory required for data: 807936
I0912 20:15:35.603260 14652 layer_factory.hpp:77] Creating layer cls_loss
I0912 20:15:35.603271 14652 net.cpp:86] Creating Layer cls_loss
I0912 20:15:35.603276 14652 net.cpp:408] cls_loss <- conv4-1-valid_cls_bridge_0_split_0
I0912 20:15:35.603281 14652 net.cpp:408] cls_loss <- label-valid_cls_bridge_1_split_0
I0912 20:15:35.603296 14652 net.cpp:382] cls_loss -> cls_loss
…
