…
weights: "12net-cls-only.caffemodel"
I0916 22:09:46.105010 24665 solver.cpp:102] Creating training net from net file: train12.prototxt
I0916 22:09:46.105203 24665 net.cpp:296] The NetState phase (0) differed from the phase (1) specified by a rule in layer cls_Acc
I0916 22:09:46.105213 24665 net.cpp:53] Initializing net from parameters: 
name: "face_12c"
state {
  phase: TRAIN
  level: 0
  stage: ""
}
layer {
  name: "PythonLayer"
  type: "Python"
  top: "data"
  top: "label"
  top: "roi"
  top: "pts"
  python_param {
    module: "pythonLayer"
    layer: "Data_Layer_train"
  }
}
layer {
  name: "conv1"
  type: "Convolution"
  bottom: "data"
  top: "conv1"
  param {
    lr_mult: 1
  }
  param {
    lr_mult: 2
  }
  convolution_param {
    num_output: 10
    kernel_size: 3
    weight_filler {
      type: "gaussian"
      std: 0.0001
    }
    bias_filler {
      type: "constant"
    }
  }
}
layer {
  name: "relu1"
  type: "PReLU"
  bottom: "conv1"
  top: "conv1"
}
layer {
  name: "pool1"
  type: "Pooling"
  bottom: "conv1"
  top: "pool1"
  pooling_param {
    pool: MAX
    kernel_size: 3
    stride: 2
  }
}
layer {
  name: "conv2"
  type: "Convolution"
  bottom: "pool1"
  top: "conv2"
  param {
    lr_mult: 1
  }
  param {
    lr_mult: 2
  }
  convolution_param {
    num_output: 16
    kernel_size: 3
    weight_filler {
      type: "gaussian"
      std: 0.0001
    }
    bias_filler {
      type: "constant"
    }
  }
}
layer {
  name: "relu2"
  type: "PReLU"
  bottom: "conv2"
  top: "conv2"
}
layer {
  name: "conv3"
  type: "Convolution"
  bottom: "conv2"
  top: "conv3"
  param {
    lr_mult: 1
    decay_mult: 1
  }
  param {
    lr_mult: 2
    decay_mult: 0
  }
  convolution_param {
    num_output: 32
    kernel_size: 3
    stride: 1
    weight_filler {
      type: "xavier"
    }
    bias_filler {
      type: "constant"
      value: 0
    }
  }
}
layer {
  name: "relu3"
  type: "PReLU"
  bottom: "conv3"
  top: "conv3"
}
layer {
  name: "conv4-1"
  type: "Convolution"
  bottom: "conv3"
  top: "conv4-1"
  param {
    lr_mult: 1
    decay_mult: 1
  }
  param {
    lr_mult: 2
    decay_mult: 0
  }
  convolution_param {
    num_output: 2
    kernel_size: 1
    stride: 1
    weight_filler {
      type: "xavier"
    }
    bias_filler {
      type: "constant"
      value: 0
    }
  }
}
layer {
  name: "cls_bridge"
  type: "Python"
  bottom: "conv4-1"
  bottom: "label"
  top: "conv4-1-valid"
  top: "label-valid"
  python_param {
    module: "pythonLayer"
    layer: "cls_Layer_fc"
  }
}
layer {
  name: "cls_loss"
  type: "SoftmaxWithLoss"
  bottom: "conv4-1-valid"
  bottom: "label-valid"
  top: "cls_loss"
  loss_weight: 1
  propagate_down: true
  propagate_down: false
}
layer {
  name: "cls_Acc"
  type: "Accuracy"
  bottom: "conv4-1-valid"
  bottom: "label-valid"
  top: "cls_Acc"
  include {
    phase: TRAIN
  }
}
layer {
  name: "conv4-2"
  type: "Convolution"
  bottom: "conv3"
  top: "conv4-2"
  param {
    lr_mult: 1
    decay_mult: 1
  }
  param {
    lr_mult: 2
    decay_mult: 0
  }
  convolution_param {
    num_output: 4
    kernel_size: 1
    stride: 1
    weight_filler {
      type: "xavier"
    }
    bias_filler {
      type: "constant"
      value: 0
    }
  }
}
layer {
  name: "roi_loss"
  type: "Python"
  bottom: "conv4-2"
  bottom: "roi"
  top: "roi_loss"
  loss_weight: 0.5
  python_param {
    module: "pythonLayer"
    layer: "regression_Layer"
  }
}
layer {
  name: "conv4-3"
  type: "Convolution"
  bottom: "conv3"
  top: "conv4-3"
  param {
    lr_mult: 1
    decay_mult: 1
  }
  param {
    lr_mult: 2
    decay_mult: 0
  }
  convolution_param {
    num_output: 10
    kernel_size: 1
    stride: 1
    weight_filler {
      type: "xavier"
    }
    bias_filler {
      type: "constant"
      value: 0
    }
  }
}
layer {
  name: "pts_loss"
  type: "Python"
  bottom: "conv4-3"
  bottom: "pts"
  top: "pts_loss"
  loss_weight: 0.5
  python_param {
    module: "pythonLayer"
    layer: "regression_Layer"
  }
}
I0916 22:09:46.105370 24665 layer_factory.hpp:77] Creating layer PythonLayer
I0916 22:09:46.602249 24665 net.cpp:86] Creating Layer PythonLayer
I0916 22:09:46.602283 24665 net.cpp:382] PythonLayer -> data
I0916 22:09:46.602304 24665 net.cpp:382] PythonLayer -> label
I0916 22:09:46.602313 24665 net.cpp:382] PythonLayer -> roi
I0916 22:09:46.602319 24665 net.cpp:382] PythonLayer -> pts
I0916 22:10:39.265612 24665 net.cpp:124] Setting up PythonLayer
I0916 22:10:39.265957 24665 net.cpp:131] Top shape: 64 3 12 12 (27648)
I0916 22:10:39.265980 24665 net.cpp:131] Top shape: 64 1 (64)
I0916 22:10:39.265988 24665 net.cpp:131] Top shape: 64 4 (256)
I0916 22:10:39.265997 24665 net.cpp:131] Top shape: 64 10 (640)
I0916 22:10:39.266005 24665 net.cpp:139] Memory required for data: 114432
I0916 22:10:39.266022 24665 layer_factory.hpp:77] Creating layer conv1
I0916 22:10:39.266063 24665 net.cpp:86] Creating Layer conv1
I0916 22:10:39.266077 24665 net.cpp:408] conv1 <- data
I0916 22:10:39.266103 24665 net.cpp:382] conv1 -> conv1
I0916 22:10:40.409793 24665 net.cpp:124] Setting up conv1
I0916 22:10:40.409823 24665 net.cpp:131] Top shape: 64 10 10 10 (64000)
I0916 22:10:40.409831 24665 net.cpp:139] Memory required for data: 370432
I0916 22:10:40.409854 24665 layer_factory.hpp:77] Creating layer relu1
I0916 22:10:40.409864 24665 net.cpp:86] Creating Layer relu1
I0916 22:10:40.409868 24665 net.cpp:408] relu1 <- conv1
I0916 22:10:40.409873 24665 net.cpp:369] relu1 -> conv1 (in-place)
I0916 22:10:40.409946 24665 net.cpp:124] Setting up relu1
I0916 22:10:40.409950 24665 net.cpp:131] Top shape: 64 10 10 10 (64000)
I0916 22:10:40.409953 24665 net.cpp:139] Memory required for data: 626432
I0916 22:10:40.409958 24665 layer_factory.hpp:77] Creating layer pool1
I0916 22:10:40.409963 24665 net.cpp:86] Creating Layer pool1
I0916 22:10:40.409966 24665 net.cpp:408] pool1 <- conv1
I0916 22:10:40.409971 24665 net.cpp:382] pool1 -> pool1
I0916 22:10:40.409999 24665 net.cpp:124] Setting up pool1
I0916 22:10:40.410002 24665 net.cpp:131] Top shape: 64 10 5 5 (16000)
I0916 22:10:40.410006 24665 net.cpp:139] Memory required for data: 690432
I0916 22:10:40.410009 24665 layer_factory.hpp:77] Creating layer conv2
I0916 22:10:40.410017 24665 net.cpp:86] Creating Layer conv2
I0916 22:10:40.410020 24665 net.cpp:408] conv2 <- pool1
I0916 22:10:40.410024 24665 net.cpp:382] conv2 -> conv2
I0916 22:10:40.411572 24665 net.cpp:124] Setting up conv2
I0916 22:10:40.411586 24665 net.cpp:131] Top shape: 64 16 3 3 (9216)
I0916 22:10:40.411592 24665 net.cpp:139] Memory required for data: 727296
I0916 22:10:40.411598 24665 layer_factory.hpp:77] Creating layer relu2
I0916 22:10:40.411605 24665 net.cpp:86] Creating Layer relu2
I0916 22:10:40.411608 24665 net.cpp:408] relu2 <- conv2
I0916 22:10:40.411612 24665 net.cpp:369] relu2 -> conv2 (in-place)
I0916 22:10:40.411670 24665 net.cpp:124] Setting up relu2
I0916 22:10:40.411674 24665 net.cpp:131] Top shape: 64 16 3 3 (9216)
I0916 22:10:40.411677 24665 net.cpp:139] Memory required for data: 764160
I0916 22:10:40.411681 24665 layer_factory.hpp:77] Creating layer conv3
I0916 22:10:40.411689 24665 net.cpp:86] Creating Layer conv3
I0916 22:10:40.411691 24665 net.cpp:408] conv3 <- conv2
I0916 22:10:40.411696 24665 net.cpp:382] conv3 -> conv3
I0916 22:10:40.413203 24665 net.cpp:124] Setting up conv3
I0916 22:10:40.413214 24665 net.cpp:131] Top shape: 64 32 1 1 (2048)
I0916 22:10:40.413219 24665 net.cpp:139] Memory required for data: 772352
I0916 22:10:40.413225 24665 layer_factory.hpp:77] Creating layer relu3
I0916 22:10:40.413230 24665 net.cpp:86] Creating Layer relu3
I0916 22:10:40.413233 24665 net.cpp:408] relu3 <- conv3
I0916 22:10:40.413246 24665 net.cpp:369] relu3 -> conv3 (in-place)
I0916 22:10:40.413308 24665 net.cpp:124] Setting up relu3
I0916 22:10:40.413311 24665 net.cpp:131] Top shape: 64 32 1 1 (2048)
I0916 22:10:40.413316 24665 net.cpp:139] Memory required for data: 780544
I0916 22:10:40.413319 24665 layer_factory.hpp:77] Creating layer conv3_relu3_0_split
I0916 22:10:40.413327 24665 net.cpp:86] Creating Layer conv3_relu3_0_split
I0916 22:10:40.413331 24665 net.cpp:408] conv3_relu3_0_split <- conv3
I0916 22:10:40.413336 24665 net.cpp:382] conv3_relu3_0_split -> conv3_relu3_0_split_0
I0916 22:10:40.413341 24665 net.cpp:382] conv3_relu3_0_split -> conv3_relu3_0_split_1
I0916 22:10:40.413345 24665 net.cpp:382] conv3_relu3_0_split -> conv3_relu3_0_split_2
I0916 22:10:40.413374 24665 net.cpp:124] Setting up conv3_relu3_0_split
I0916 22:10:40.413378 24665 net.cpp:131] Top shape: 64 32 1 1 (2048)
I0916 22:10:40.413399 24665 net.cpp:131] Top shape: 64 32 1 1 (2048)
I0916 22:10:40.413403 24665 net.cpp:131] Top shape: 64 32 1 1 (2048)
I0916 22:10:40.413405 24665 net.cpp:139] Memory required for data: 805120
I0916 22:10:40.413409 24665 layer_factory.hpp:77] Creating layer conv4-1
I0916 22:10:40.413419 24665 net.cpp:86] Creating Layer conv4-1
I0916 22:10:40.413421 24665 net.cpp:408] conv4-1 <- conv3_relu3_0_split_0
I0916 22:10:40.413426 24665 net.cpp:382] conv4-1 -> conv4-1
I0916 22:10:40.415918 24665 net.cpp:124] Setting up conv4-1
I0916 22:10:40.415932 24665 net.cpp:131] Top shape: 64 2 1 1 (128)
I0916 22:10:40.415936 24665 net.cpp:139] Memory required for data: 805632
I0916 22:10:40.415941 24665 layer_factory.hpp:77] Creating layer cls_bridge
I0916 22:10:40.415995 24665 net.cpp:86] Creating Layer cls_bridge
I0916 22:10:40.416000 24665 net.cpp:408] cls_bridge <- conv4-1
I0916 22:10:40.416004 24665 net.cpp:408] cls_bridge <- label
I0916 22:10:40.416008 24665 net.cpp:382] cls_bridge -> conv4-1-valid
I0916 22:10:40.416013 24665 net.cpp:382] cls_bridge -> label-valid
I0916 22:10:40.416128 24665 net.cpp:124] Setting up cls_bridge
I0916 22:10:40.416133 24665 net.cpp:131] Top shape: 64 2 1 1 (128)
I0916 22:10:40.416136 24665 net.cpp:131] Top shape: 64 1 (64)
I0916 22:10:40.416139 24665 net.cpp:139] Memory required for data: 806400
I0916 22:10:40.416142 24665 layer_factory.hpp:77] Creating layer conv4-1-valid_cls_bridge_0_split
I0916 22:10:40.416147 24665 net.cpp:86] Creating Layer conv4-1-valid_cls_bridge_0_split
I0916 22:10:40.416151 24665 net.cpp:408] conv4-1-valid_cls_bridge_0_split <- conv4-1-valid
I0916 22:10:40.416154 24665 net.cpp:382] conv4-1-valid_cls_bridge_0_split -> conv4-1-valid_cls_bridge_0_split_0
I0916 22:10:40.416159 24665 net.cpp:382] conv4-1-valid_cls_bridge_0_split -> conv4-1-valid_cls_bridge_0_split_1
I0916 22:10:40.416182 24665 net.cpp:124] Setting up conv4-1-valid_cls_bridge_0_split
I0916 22:10:40.416184 24665 net.cpp:131] Top shape: 64 2 1 1 (128)
I0916 22:10:40.416188 24665 net.cpp:131] Top shape: 64 2 1 1 (128)
I0916 22:10:40.416190 24665 net.cpp:139] Memory required for data: 807424
I0916 22:10:40.416194 24665 layer_factory.hpp:77] Creating layer label-valid_cls_bridge_1_split
I0916 22:10:40.416199 24665 net.cpp:86] Creating Layer label-valid_cls_bridge_1_split
I0916 22:10:40.416203 24665 net.cpp:408] label-valid_cls_bridge_1_split <- label-valid
I0916 22:10:40.416206 24665 net.cpp:382] label-valid_cls_bridge_1_split -> label-valid_cls_bridge_1_split_0
I0916 22:10:40.416210 24665 net.cpp:382] label-valid_cls_bridge_1_split -> label-valid_cls_bridge_1_split_1
I0916 22:10:40.416232 24665 net.cpp:124] Setting up label-valid_cls_bridge_1_split
I0916 22:10:40.416235 24665 net.cpp:131] Top shape: 64 1 (64)
I0916 22:10:40.416239 24665 net.cpp:131] Top shape: 64 1 (64)
I0916 22:10:40.416241 24665 net.cpp:139] Memory required for data: 807936
I0916 22:10:40.416244 24665 layer_factory.hpp:77] Creating layer cls_loss
I0916 22:10:40.416251 24665 net.cpp:86] Creating Layer cls_loss
I0916 22:10:40.416254 24665 net.cpp:408] cls_loss <- conv4-1-valid_cls_bridge_0_split_0
I0916 22:10:40.416257 24665 net.cpp:408] cls_loss <- label-valid_cls_bridge_1_split_0
I0916 22:10:40.416267 24665 net.cpp:382] cls_loss -> cls_loss
…
