…
weights: "12net-cls-only.caffemodel"
I0919 12:24:28.010262  6236 solver.cpp:102] Creating training net from net file: train12.prototxt
I0919 12:24:28.012436  6236 net.cpp:296] The NetState phase (0) differed from the phase (1) specified by a rule in layer cls_Acc
I0919 12:24:28.012475  6236 net.cpp:53] Initializing net from parameters: 
name: "face_12c"
state {
  phase: TRAIN
  level: 0
  stage: ""
}
layer {
  name: "PythonLayer"
  type: "Python"
  top: "data"
  top: "label"
  top: "roi"
  top: "pts"
  python_param {
    module: "pythonLayer"
    layer: "Data_Layer_train"
  }
}
layer {
  name: "conv1"
  type: "Convolution"
  bottom: "data"
  top: "conv1"
  param {
    lr_mult: 1
  }
  param {
    lr_mult: 2
  }
  convolution_param {
    num_output: 10
    kernel_size: 3
    weight_filler {
      type: "gaussian"
      std: 0.0001
    }
    bias_filler {
      type: "constant"
    }
  }
}
layer {
  name: "relu1"
  type: "PReLU"
  bottom: "conv1"
  top: "conv1"
}
layer {
  name: "pool1"
  type: "Pooling"
  bottom: "conv1"
  top: "pool1"
  pooling_param {
    pool: MAX
    kernel_size: 3
    stride: 2
  }
}
layer {
  name: "conv2"
  type: "Convolution"
  bottom: "pool1"
  top: "conv2"
  param {
    lr_mult: 1
  }
  param {
    lr_mult: 2
  }
  convolution_param {
    num_output: 16
    kernel_size: 3
    weight_filler {
      type: "gaussian"
      std: 0.0001
    }
    bias_filler {
      type: "constant"
    }
  }
}
layer {
  name: "relu2"
  type: "PReLU"
  bottom: "conv2"
  top: "conv2"
}
layer {
  name: "conv3"
  type: "Convolution"
  bottom: "conv2"
  top: "conv3"
  param {
    lr_mult: 1
    decay_mult: 1
  }
  param {
    lr_mult: 2
    decay_mult: 0
  }
  convolution_param {
    num_output: 32
    kernel_size: 3
    stride: 1
    weight_filler {
      type: "xavier"
    }
    bias_filler {
      type: "constant"
      value: 0
    }
  }
}
layer {
  name: "relu3"
  type: "PReLU"
  bottom: "conv3"
  top: "conv3"
}
layer {
  name: "conv4-1"
  type: "Convolution"
  bottom: "conv3"
  top: "conv4-1"
  param {
    lr_mult: 1
    decay_mult: 1
  }
  param {
    lr_mult: 2
    decay_mult: 0
  }
  convolution_param {
    num_output: 2
    kernel_size: 1
    stride: 1
    weight_filler {
      type: "xavier"
    }
    bias_filler {
      type: "constant"
      value: 0
    }
  }
}
layer {
  name: "cls_bridge"
  type: "Python"
  bottom: "conv4-1"
  bottom: "label"
  top: "conv4-1-valid"
  top: "label-valid"
  python_param {
    module: "pythonLayer"
    layer: "cls_Layer_fc"
  }
}
layer {
  name: "cls_loss"
  type: "SoftmaxWithLoss"
  bottom: "conv4-1-valid"
  bottom: "label-valid"
  top: "cls_loss"
  loss_weight: 1
  propagate_down: true
  propagate_down: false
}
layer {
  name: "cls_Acc"
  type: "Accuracy"
  bottom: "conv4-1-valid"
  bottom: "label-valid"
  top: "cls_Acc"
  include {
    phase: TRAIN
  }
}
layer {
  name: "conv4-2"
  type: "Convolution"
  bottom: "conv3"
  top: "conv4-2"
  param {
    lr_mult: 1
    decay_mult: 1
  }
  param {
    lr_mult: 2
    decay_mult: 0
  }
  convolution_param {
    num_output: 4
    kernel_size: 1
    stride: 1
    weight_filler {
      type: "xavier"
    }
    bias_filler {
      type: "constant"
      value: 0
    }
  }
}
layer {
  name: "roi_loss"
  type: "Python"
  bottom: "conv4-2"
  bottom: "roi"
  top: "roi_loss"
  loss_weight: 1
  python_param {
    module: "pythonLayer"
    layer: "regression_Layer"
  }
}
layer {
  name: "conv4-3"
  type: "Convolution"
  bottom: "conv3"
  top: "conv4-3"
  param {
    lr_mult: 1
    decay_mult: 1
  }
  param {
    lr_mult: 2
    decay_mult: 0
  }
  convolution_param {
    num_output: 10
    kernel_size: 1
    stride: 1
    weight_filler {
      type: "xavier"
    }
    bias_filler {
      type: "constant"
      value: 0
    }
  }
}
layer {
  name: "pts_loss"
  type: "Python"
  bottom: "conv4-3"
  bottom: "pts"
  top: "pts_loss"
  loss_weight: 0.5
  python_param {
    module: "pythonLayer"
    layer: "regression_Layer"
  }
}
I0919 12:24:28.012742  6236 layer_factory.hpp:77] Creating layer PythonLayer
I0919 12:24:28.565186  6236 net.cpp:86] Creating Layer PythonLayer
I0919 12:24:28.565229  6236 net.cpp:382] PythonLayer -> data
I0919 12:24:28.565249  6236 net.cpp:382] PythonLayer -> label
I0919 12:24:28.565261  6236 net.cpp:382] PythonLayer -> roi
I0919 12:24:28.565268  6236 net.cpp:382] PythonLayer -> pts
I0919 12:25:20.175472  6236 net.cpp:124] Setting up PythonLayer
I0919 12:25:20.175536  6236 net.cpp:131] Top shape: 64 3 12 12 (27648)
I0919 12:25:20.175547  6236 net.cpp:131] Top shape: 64 1 (64)
I0919 12:25:20.175551  6236 net.cpp:131] Top shape: 64 4 (256)
I0919 12:25:20.175555  6236 net.cpp:131] Top shape: 64 10 (640)
I0919 12:25:20.175559  6236 net.cpp:139] Memory required for data: 114432
I0919 12:25:20.175570  6236 layer_factory.hpp:77] Creating layer conv1
I0919 12:25:20.175601  6236 net.cpp:86] Creating Layer conv1
I0919 12:25:20.175609  6236 net.cpp:408] conv1 <- data
I0919 12:25:20.175628  6236 net.cpp:382] conv1 -> conv1
I0919 12:25:21.354701  6236 net.cpp:124] Setting up conv1
I0919 12:25:21.354740  6236 net.cpp:131] Top shape: 64 10 10 10 (64000)
I0919 12:25:21.354748  6236 net.cpp:139] Memory required for data: 370432
I0919 12:25:21.354773  6236 layer_factory.hpp:77] Creating layer relu1
I0919 12:25:21.354784  6236 net.cpp:86] Creating Layer relu1
I0919 12:25:21.354789  6236 net.cpp:408] relu1 <- conv1
I0919 12:25:21.354794  6236 net.cpp:369] relu1 -> conv1 (in-place)
I0919 12:25:21.354873  6236 net.cpp:124] Setting up relu1
I0919 12:25:21.354881  6236 net.cpp:131] Top shape: 64 10 10 10 (64000)
I0919 12:25:21.354887  6236 net.cpp:139] Memory required for data: 626432
I0919 12:25:21.354892  6236 layer_factory.hpp:77] Creating layer pool1
I0919 12:25:21.354899  6236 net.cpp:86] Creating Layer pool1
I0919 12:25:21.354904  6236 net.cpp:408] pool1 <- conv1
I0919 12:25:21.354910  6236 net.cpp:382] pool1 -> pool1
I0919 12:25:21.354955  6236 net.cpp:124] Setting up pool1
I0919 12:25:21.354964  6236 net.cpp:131] Top shape: 64 10 5 5 (16000)
I0919 12:25:21.354969  6236 net.cpp:139] Memory required for data: 690432
I0919 12:25:21.354974  6236 layer_factory.hpp:77] Creating layer conv2
I0919 12:25:21.354984  6236 net.cpp:86] Creating Layer conv2
I0919 12:25:21.354990  6236 net.cpp:408] conv2 <- pool1
I0919 12:25:21.355000  6236 net.cpp:382] conv2 -> conv2
I0919 12:25:21.356582  6236 net.cpp:124] Setting up conv2
I0919 12:25:21.356600  6236 net.cpp:131] Top shape: 64 16 3 3 (9216)
I0919 12:25:21.356606  6236 net.cpp:139] Memory required for data: 727296
I0919 12:25:21.356616  6236 layer_factory.hpp:77] Creating layer relu2
I0919 12:25:21.356622  6236 net.cpp:86] Creating Layer relu2
I0919 12:25:21.356626  6236 net.cpp:408] relu2 <- conv2
I0919 12:25:21.356631  6236 net.cpp:369] relu2 -> conv2 (in-place)
I0919 12:25:21.356688  6236 net.cpp:124] Setting up relu2
I0919 12:25:21.356694  6236 net.cpp:131] Top shape: 64 16 3 3 (9216)
I0919 12:25:21.356699  6236 net.cpp:139] Memory required for data: 764160
I0919 12:25:21.356703  6236 layer_factory.hpp:77] Creating layer conv3
I0919 12:25:21.356711  6236 net.cpp:86] Creating Layer conv3
I0919 12:25:21.356717  6236 net.cpp:408] conv3 <- conv2
I0919 12:25:21.356724  6236 net.cpp:382] conv3 -> conv3
I0919 12:25:21.358259  6236 net.cpp:124] Setting up conv3
I0919 12:25:21.358274  6236 net.cpp:131] Top shape: 64 32 1 1 (2048)
I0919 12:25:21.358279  6236 net.cpp:139] Memory required for data: 772352
I0919 12:25:21.358285  6236 layer_factory.hpp:77] Creating layer relu3
I0919 12:25:21.358291  6236 net.cpp:86] Creating Layer relu3
I0919 12:25:21.358304  6236 net.cpp:408] relu3 <- conv3
I0919 12:25:21.358309  6236 net.cpp:369] relu3 -> conv3 (in-place)
I0919 12:25:21.358368  6236 net.cpp:124] Setting up relu3
I0919 12:25:21.358373  6236 net.cpp:131] Top shape: 64 32 1 1 (2048)
I0919 12:25:21.358377  6236 net.cpp:139] Memory required for data: 780544
I0919 12:25:21.358382  6236 layer_factory.hpp:77] Creating layer conv3_relu3_0_split
I0919 12:25:21.358393  6236 net.cpp:86] Creating Layer conv3_relu3_0_split
I0919 12:25:21.358400  6236 net.cpp:408] conv3_relu3_0_split <- conv3
I0919 12:25:21.358407  6236 net.cpp:382] conv3_relu3_0_split -> conv3_relu3_0_split_0
I0919 12:25:21.358415  6236 net.cpp:382] conv3_relu3_0_split -> conv3_relu3_0_split_1
I0919 12:25:21.358425  6236 net.cpp:382] conv3_relu3_0_split -> conv3_relu3_0_split_2
I0919 12:25:21.358467  6236 net.cpp:124] Setting up conv3_relu3_0_split
I0919 12:25:21.358474  6236 net.cpp:131] Top shape: 64 32 1 1 (2048)
I0919 12:25:21.358494  6236 net.cpp:131] Top shape: 64 32 1 1 (2048)
I0919 12:25:21.358500  6236 net.cpp:131] Top shape: 64 32 1 1 (2048)
I0919 12:25:21.358506  6236 net.cpp:139] Memory required for data: 805120
I0919 12:25:21.358511  6236 layer_factory.hpp:77] Creating layer conv4-1
I0919 12:25:21.358525  6236 net.cpp:86] Creating Layer conv4-1
I0919 12:25:21.358532  6236 net.cpp:408] conv4-1 <- conv3_relu3_0_split_0
I0919 12:25:21.358538  6236 net.cpp:382] conv4-1 -> conv4-1
I0919 12:25:21.361160  6236 net.cpp:124] Setting up conv4-1
I0919 12:25:21.361176  6236 net.cpp:131] Top shape: 64 2 1 1 (128)
I0919 12:25:21.361181  6236 net.cpp:139] Memory required for data: 805632
I0919 12:25:21.361186  6236 layer_factory.hpp:77] Creating layer cls_bridge
I0919 12:25:21.361240  6236 net.cpp:86] Creating Layer cls_bridge
I0919 12:25:21.361245  6236 net.cpp:408] cls_bridge <- conv4-1
I0919 12:25:21.361249  6236 net.cpp:408] cls_bridge <- label
I0919 12:25:21.361254  6236 net.cpp:382] cls_bridge -> conv4-1-valid
I0919 12:25:21.361260  6236 net.cpp:382] cls_bridge -> label-valid
I0919 12:25:21.361384  6236 net.cpp:124] Setting up cls_bridge
I0919 12:25:21.361393  6236 net.cpp:131] Top shape: 64 2 1 1 (128)
I0919 12:25:21.361397  6236 net.cpp:131] Top shape: 64 1 (64)
I0919 12:25:21.361400  6236 net.cpp:139] Memory required for data: 806400
I0919 12:25:21.361403  6236 layer_factory.hpp:77] Creating layer conv4-1-valid_cls_bridge_0_split
I0919 12:25:21.361416  6236 net.cpp:86] Creating Layer conv4-1-valid_cls_bridge_0_split
I0919 12:25:21.361421  6236 net.cpp:408] conv4-1-valid_cls_bridge_0_split <- conv4-1-valid
I0919 12:25:21.361428  6236 net.cpp:382] conv4-1-valid_cls_bridge_0_split -> conv4-1-valid_cls_bridge_0_split_0
I0919 12:25:21.361436  6236 net.cpp:382] conv4-1-valid_cls_bridge_0_split -> conv4-1-valid_cls_bridge_0_split_1
I0919 12:25:21.361469  6236 net.cpp:124] Setting up conv4-1-valid_cls_bridge_0_split
I0919 12:25:21.361476  6236 net.cpp:131] Top shape: 64 2 1 1 (128)
I0919 12:25:21.361480  6236 net.cpp:131] Top shape: 64 2 1 1 (128)
I0919 12:25:21.361485  6236 net.cpp:139] Memory required for data: 807424
I0919 12:25:21.361488  6236 layer_factory.hpp:77] Creating layer label-valid_cls_bridge_1_split
I0919 12:25:21.361493  6236 net.cpp:86] Creating Layer label-valid_cls_bridge_1_split
I0919 12:25:21.361498  6236 net.cpp:408] label-valid_cls_bridge_1_split <- label-valid
I0919 12:25:21.361505  6236 net.cpp:382] label-valid_cls_bridge_1_split -> label-valid_cls_bridge_1_split_0
I0919 12:25:21.361513  6236 net.cpp:382] label-valid_cls_bridge_1_split -> label-valid_cls_bridge_1_split_1
I0919 12:25:21.361541  6236 net.cpp:124] Setting up label-valid_cls_bridge_1_split
I0919 12:25:21.361547  6236 net.cpp:131] Top shape: 64 1 (64)
I0919 12:25:21.361552  6236 net.cpp:131] Top shape: 64 1 (64)
I0919 12:25:21.361554  6236 net.cpp:139] Memory required for data: 807936
I0919 12:25:21.361557  6236 layer_factory.hpp:77] Creating layer cls_loss
I0919 12:25:21.361568  6236 net.cpp:86] Creating Layer cls_loss
I0919 12:25:21.361573  6236 net.cpp:408] cls_loss <- conv4-1-valid_cls_bridge_0_split_0
I0919 12:25:21.361578  6236 net.cpp:408] cls_loss <- label-valid_cls_bridge_1_split_0
I0919 12:25:21.361594  6236 net.cpp:382] cls_loss -> cls_loss
…
